<?xml version="1.0"?>
<net name="Model0" version="11">
	<layers>
		<layer id="0" name="input_features" type="Parameter" version="opset1">
			<data shape="?,?,3000" element_type="f32" />
			<output>
				<port id="0" precision="FP32" names="input_features">
					<dim>-1</dim>
					<dim>-1</dim>
					<dim>3000</dim>
				</port>
			</output>
		</layer>
		<layer id="1" name="self.conv1.weight" type="Const" version="opset1">
			<data element_type="u8" shape="1280, 128, 3" offset="0" size="491520" />
			<output>
				<port id="0" precision="U8">
					<dim>1280</dim>
					<dim>128</dim>
					<dim>3</dim>
				</port>
			</output>
		</layer>
		<layer id="2" name="Convert_977707" type="Convert" version="opset1">
			<data destination_type="f16" />
			<input>
				<port id="0" precision="U8">
					<dim>1280</dim>
					<dim>128</dim>
					<dim>3</dim>
				</port>
			</input>
			<output>
				<port id="1" precision="FP16">
					<dim>1280</dim>
					<dim>128</dim>
					<dim>3</dim>
				</port>
			</output>
		</layer>
		<layer id="3" name="self.conv1.weight/zero_point" type="Const" version="opset1">
			<data element_type="u8" shape="1280, 1, 1" offset="491520" size="1280" />
			<output>
				<port id="0" precision="U8">
					<dim>1280</dim>
					<dim>1</dim>
					<dim>1</dim>
				</port>
			</output>
		</layer>
		<layer id="4" name="Convert_977710" type="Convert" version="opset1">
			<data destination_type="f16" />
			<input>
				<port id="0" precision="U8">
					<dim>1280</dim>
					<dim>1</dim>
					<dim>1</dim>
				</port>
			</input>
			<output>
				<port id="1" precision="FP16">
					<dim>1280</dim>
					<dim>1</dim>
					<dim>1</dim>
				</port>
			</output>
		</layer>
		<layer id="5" name="self.conv1.weight/zero_point/subtract" type="Subtract" version="opset1">
			<data auto_broadcast="numpy" />
			<input>
				<port id="0" precision="FP16">
					<dim>1280</dim>
					<dim>128</dim>
					<dim>3</dim>
				</port>
				<port id="1" precision="FP16">
					<dim>1280</dim>
					<dim>1</dim>
					<dim>1</dim>
				</port>
			</input>
			<output>
				<port id="2" precision="FP16">
					<dim>1280</dim>
					<dim>128</dim>
					<dim>3</dim>
				</port>
			</output>
		</layer>
		<layer id="6" name="self.conv1.weight/scale" type="Const" version="opset1">
			<data element_type="f16" shape="1280, 1, 1" offset="492800" size="2560" />
			<output>
				<port id="0" precision="FP16">
					<dim>1280</dim>
					<dim>1</dim>
					<dim>1</dim>
				</port>
			</output>
		</layer>
		<layer id="7" name="self.conv1.weight/fq_weights_1" type="Multiply" version="opset1">
			<data auto_broadcast="numpy" />
			<input>
				<port id="0" precision="FP16">
					<dim>1280</dim>
					<dim>128</dim>
					<dim>3</dim>
				</port>
				<port id="1" precision="FP16">
					<dim>1280</dim>
					<dim>1</dim>
					<dim>1</dim>
				</port>
			</input>
			<output>
				<port id="2" precision="FP16">
					<dim>1280</dim>
					<dim>128</dim>
					<dim>3</dim>
				</port>
			</output>
		</layer>
		<layer id="8" name="self.conv1.weight/fq_weights_1/convert" type="Convert" version="opset1">
			<data destination_type="f32" />
			<input>
				<port id="0" precision="FP16">
					<dim>1280</dim>
					<dim>128</dim>
					<dim>3</dim>
				</port>
			</input>
			<output>
				<port id="1" precision="FP32">
					<dim>1280</dim>
					<dim>128</dim>
					<dim>3</dim>
				</port>
			</output>
		</layer>
		<layer id="9" name="__module.conv1/aten::_convolution/Convolution" type="Convolution" version="opset1">
			<data strides="1" dilations="1" pads_begin="1" pads_end="1" auto_pad="explicit" />
			<input>
				<port id="0" precision="FP32">
					<dim>-1</dim>
					<dim>-1</dim>
					<dim>3000</dim>
				</port>
				<port id="1" precision="FP32">
					<dim>1280</dim>
					<dim>128</dim>
					<dim>3</dim>
				</port>
			</input>
			<output>
				<port id="2" precision="FP32">
					<dim>-1</dim>
					<dim>1280</dim>
					<dim>3000</dim>
				</port>
			</output>
		</layer>
		<layer id="10" name="__module.conv1/aten::_convolution/Reshape" type="Const" version="opset1">
			<data element_type="f32" shape="1, 1280, 1" offset="495360" size="5120" />
			<output>
				<port id="0" precision="FP32">
					<dim>1</dim>
					<dim>1280</dim>
					<dim>1</dim>
				</port>
			</output>
		</layer>
		<layer id="11" name="__module.conv1/aten::_convolution/Add" type="Add" version="opset1">
			<data auto_broadcast="numpy" />
			<input>
				<port id="0" precision="FP32">
					<dim>-1</dim>
					<dim>1280</dim>
					<dim>3000</dim>
				</port>
				<port id="1" precision="FP32">
					<dim>1</dim>
					<dim>1280</dim>
					<dim>1</dim>
				</port>
			</input>
			<output>
				<port id="2" precision="FP32" names="137">
					<dim>-1</dim>
					<dim>1280</dim>
					<dim>3000</dim>
				</port>
			</output>
		</layer>
		<layer id="12" name="aten::gelu/Gelu" type="Gelu" version="opset7">
			<data approximation_mode="ERF" />
			<input>
				<port id="0" precision="FP32">
					<dim>-1</dim>
					<dim>1280</dim>
					<dim>3000</dim>
				</port>
			</input>
			<output>
				<port id="1" precision="FP32" names="72,input.1">
					<dim>-1</dim>
					<dim>1280</dim>
					<dim>3000</dim>
				</port>
			</output>
		</layer>
		<layer id="13" name="self.conv2.weight" type="Const" version="opset1">
			<data element_type="u8" shape="1280, 1280, 3" offset="500480" size="4915200" />
			<output>
				<port id="0" precision="U8">
					<dim>1280</dim>
					<dim>1280</dim>
					<dim>3</dim>
				</port>
			</output>
		</layer>
		<layer id="14" name="Convert_361345" type="Convert" version="opset1">
			<data destination_type="f16" />
			<input>
				<port id="0" precision="U8">
					<dim>1280</dim>
					<dim>1280</dim>
					<dim>3</dim>
				</port>
			</input>
			<output>
				<port id="1" precision="FP16">
					<dim>1280</dim>
					<dim>1280</dim>
					<dim>3</dim>
				</port>
			</output>
		</layer>
		<layer id="15" name="self.conv2.weight/zero_point" type="Const" version="opset1">
			<data element_type="u8" shape="1280, 1, 1" offset="5415680" size="1280" />
			<output>
				<port id="0" precision="U8">
					<dim>1280</dim>
					<dim>1</dim>
					<dim>1</dim>
				</port>
			</output>
		</layer>
		<layer id="16" name="Convert_361348" type="Convert" version="opset1">
			<data destination_type="f16" />
			<input>
				<port id="0" precision="U8">
					<dim>1280</dim>
					<dim>1</dim>
					<dim>1</dim>
				</port>
			</input>
			<output>
				<port id="1" precision="FP16">
					<dim>1280</dim>
					<dim>1</dim>
					<dim>1</dim>
				</port>
			</output>
		</layer>
		<layer id="17" name="self.conv2.weight/zero_point/subtract" type="Subtract" version="opset1">
			<data auto_broadcast="numpy" />
			<input>
				<port id="0" precision="FP16">
					<dim>1280</dim>
					<dim>1280</dim>
					<dim>3</dim>
				</port>
				<port id="1" precision="FP16">
					<dim>1280</dim>
					<dim>1</dim>
					<dim>1</dim>
				</port>
			</input>
			<output>
				<port id="2" precision="FP16">
					<dim>1280</dim>
					<dim>1280</dim>
					<dim>3</dim>
				</port>
			</output>
		</layer>
		<layer id="18" name="self.conv2.weight/scale" type="Const" version="opset1">
			<data element_type="f16" shape="1280, 1, 1" offset="5416960" size="2560" />
			<output>
				<port id="0" precision="FP16">
					<dim>1280</dim>
					<dim>1</dim>
					<dim>1</dim>
				</port>
			</output>
		</layer>
		<layer id="19" name="self.conv2.weight/fq_weights_1" type="Multiply" version="opset1">
			<data auto_broadcast="numpy" />
			<input>
				<port id="0" precision="FP16">
					<dim>1280</dim>
					<dim>1280</dim>
					<dim>3</dim>
				</port>
				<port id="1" precision="FP16">
					<dim>1280</dim>
					<dim>1</dim>
					<dim>1</dim>
				</port>
			</input>
			<output>
				<port id="2" precision="FP16">
					<dim>1280</dim>
					<dim>1280</dim>
					<dim>3</dim>
				</port>
			</output>
		</layer>
		<layer id="20" name="self.conv2.weight/fq_weights_1/convert" type="Convert" version="opset1">
			<data destination_type="f32" />
			<input>
				<port id="0" precision="FP16">
					<dim>1280</dim>
					<dim>1280</dim>
					<dim>3</dim>
				</port>
			</input>
			<output>
				<port id="1" precision="FP32">
					<dim>1280</dim>
					<dim>1280</dim>
					<dim>3</dim>
				</port>
			</output>
		</layer>
		<layer id="21" name="__module.conv2/aten::_convolution/Convolution" type="Convolution" version="opset1">
			<data strides="2" dilations="1" pads_begin="1" pads_end="1" auto_pad="explicit" />
			<input>
				<port id="0" precision="FP32">
					<dim>-1</dim>
					<dim>1280</dim>
					<dim>3000</dim>
				</port>
				<port id="1" precision="FP32">
					<dim>1280</dim>
					<dim>1280</dim>
					<dim>3</dim>
				</port>
			</input>
			<output>
				<port id="2" precision="FP32">
					<dim>-1</dim>
					<dim>1280</dim>
					<dim>1500</dim>
				</port>
			</output>
		</layer>
		<layer id="22" name="__module.conv2/aten::_convolution/Reshape" type="Const" version="opset1">
			<data element_type="f32" shape="1, 1280, 1" offset="5419520" size="5120" />
			<output>
				<port id="0" precision="FP32">
					<dim>1</dim>
					<dim>1280</dim>
					<dim>1</dim>
				</port>
			</output>
		</layer>
		<layer id="23" name="__module.conv2/aten::_convolution/Add" type="Add" version="opset1">
			<data auto_broadcast="numpy" />
			<input>
				<port id="0" precision="FP32">
					<dim>-1</dim>
					<dim>1280</dim>
					<dim>1500</dim>
				</port>
				<port id="1" precision="FP32">
					<dim>1</dim>
					<dim>1280</dim>
					<dim>1</dim>
				</port>
			</input>
			<output>
				<port id="2" precision="FP32" names="149">
					<dim>-1</dim>
					<dim>1280</dim>
					<dim>1500</dim>
				</port>
			</output>
		</layer>
		<layer id="24" name="aten::gelu/Gelu_1" type="Gelu" version="opset7">
			<data approximation_mode="ERF" />
			<input>
				<port id="0" precision="FP32">
					<dim>-1</dim>
					<dim>1280</dim>
					<dim>1500</dim>
				</port>
			</input>
			<output>
				<port id="1" precision="FP32" names="75,inputs_embeds.1">
					<dim>-1</dim>
					<dim>1280</dim>
					<dim>1500</dim>
				</port>
			</output>
		</layer>
		<layer id="25" name="Constant_170" type="Const" version="opset1">
			<data element_type="i64" shape="3" offset="5424640" size="24" />
			<output>
				<port id="0" precision="I64" names="79">
					<dim>3</dim>
				</port>
			</output>
		</layer>
		<layer id="26" name="aten::permute/Transpose" type="Transpose" version="opset1">
			<input>
				<port id="0" precision="FP32">
					<dim>-1</dim>
					<dim>1280</dim>
					<dim>1500</dim>
				</port>
				<port id="1" precision="I64">
					<dim>3</dim>
				</port>
			</input>
			<output>
				<port id="2" precision="FP32" names="80,inputs_embeds">
					<dim>-1</dim>
					<dim>1500</dim>
					<dim>1280</dim>
				</port>
			</output>
		</layer>
		<layer id="27" name="Constant_20171" type="Const" version="opset1">
			<data element_type="f32" shape="1, 1500, 1280" offset="5424664" size="7680000" />
			<output>
				<port id="0" precision="FP32">
					<dim>1</dim>
					<dim>1500</dim>
					<dim>1280</dim>
				</port>
			</output>
		</layer>
		<layer id="28" name="aten::add/Add" type="Add" version="opset1">
			<data auto_broadcast="numpy" />
			<input>
				<port id="0" precision="FP32">
					<dim>-1</dim>
					<dim>1500</dim>
					<dim>1280</dim>
				</port>
				<port id="1" precision="FP32">
					<dim>1</dim>
					<dim>1500</dim>
					<dim>1280</dim>
				</port>
			</input>
			<output>
				<port id="2" precision="FP32" names="89,input.5">
					<dim>-1</dim>
					<dim>1500</dim>
					<dim>1280</dim>
				</port>
			</output>
		</layer>
		<layer id="29" name="__module.layers.0.self_attn_layer_norm/aten::layer_norm/Multiply" type="Const" version="opset1">
			<data element_type="i32" shape="1" offset="13104664" size="4" />
			<output>
				<port id="0" precision="I32">
					<dim>1</dim>
				</port>
			</output>
		</layer>
		<layer id="30" name="__module.layers.0.self_attn_layer_norm/aten::layer_norm/MVN" type="MVN" version="opset6">
			<data eps="9.9999997473787516e-06" normalize_variance="true" eps_mode="INSIDE_SQRT" />
			<input>
				<port id="0" precision="FP32">
					<dim>-1</dim>
					<dim>1500</dim>
					<dim>1280</dim>
				</port>
				<port id="1" precision="I32">
					<dim>1</dim>
				</port>
			</input>
			<output>
				<port id="2" precision="FP32">
					<dim>-1</dim>
					<dim>1500</dim>
					<dim>1280</dim>
				</port>
			</output>
		</layer>
		<layer id="31" name="Constant_20172" type="Const" version="opset1">
			<data element_type="f32" shape="1, 1, 1280" offset="13104668" size="5120" />
			<output>
				<port id="0" precision="FP32">
					<dim>1</dim>
					<dim>1</dim>
					<dim>1280</dim>
				</port>
			</output>
		</layer>
		<layer id="32" name="__module.layers.0.self_attn_layer_norm/aten::layer_norm/Multiply_1" type="Multiply" version="opset1">
			<data auto_broadcast="numpy" />
			<input>
				<port id="0" precision="FP32">
					<dim>-1</dim>
					<dim>1500</dim>
					<dim>1280</dim>
				</port>
				<port id="1" precision="FP32">
					<dim>1</dim>
					<dim>1</dim>
					<dim>1280</dim>
				</port>
			</input>
			<output>
				<port id="2" precision="FP32">
					<dim>-1</dim>
					<dim>1500</dim>
					<dim>1280</dim>
				</port>
			</output>
		</layer>
		<layer id="33" name="Constant_20173" type="Const" version="opset1">
			<data element_type="f32" shape="1, 1, 1280" offset="13109788" size="5120" />
			<output>
				<port id="0" precision="FP32">
					<dim>1</dim>
					<dim>1</dim>
					<dim>1280</dim>
				</port>
			</output>
		</layer>
		<layer id="34" name="__module.layers.0.self_attn_layer_norm/aten::layer_norm/Add" type="Add" version="opset1">
			<data auto_broadcast="numpy" />
			<input>
				<port id="0" precision="FP32">
					<dim>-1</dim>
					<dim>1500</dim>
					<dim>1280</dim>
				</port>
				<port id="1" precision="FP32">
					<dim>1</dim>
					<dim>1</dim>
					<dim>1280</dim>
				</port>
			</input>
			<output>
				<port id="2" precision="FP32" names="178,hidden_states.1">
					<dim>-1</dim>
					<dim>1500</dim>
					<dim>1280</dim>
				</port>
			</output>
		</layer>
		<layer id="35" name="self.layers.0.self_attn.q_proj.weight" type="Const" version="opset1">
			<data element_type="u8" shape="1280, 1280" offset="13114908" size="1638400" />
			<output>
				<port id="0" precision="U8">
					<dim>1280</dim>
					<dim>1280</dim>
				</port>
			</output>
		</layer>
		<layer id="36" name="Convert_375679" type="Convert" version="opset1">
			<data destination_type="f16" />
			<input>
				<port id="0" precision="U8">
					<dim>1280</dim>
					<dim>1280</dim>
				</port>
			</input>
			<output>
				<port id="1" precision="FP16">
					<dim>1280</dim>
					<dim>1280</dim>
				</port>
			</output>
		</layer>
		<layer id="37" name="self.layers.0.self_attn.q_proj.weight/zero_point" type="Const" version="opset1">
			<data element_type="u8" shape="1280, 1" offset="14753308" size="1280" />
			<output>
				<port id="0" precision="U8">
					<dim>1280</dim>
					<dim>1</dim>
				</port>
			</output>
		</layer>
		<layer id="38" name="Convert_375682" type="Convert" version="opset1">
			<data destination_type="f16" />
			<input>
				<port id="0" precision="U8">
					<dim>1280</dim>
					<dim>1</dim>
				</port>
			</input>
			<output>
				<port id="1" precision="FP16">
					<dim>1280</dim>
					<dim>1</dim>
				</port>
			</output>
		</layer>
		<layer id="39" name="self.layers.0.self_attn.q_proj.weight/zero_point/subtract" type="Subtract" version="opset1">
			<data auto_broadcast="numpy" />
			<input>
				<port id="0" precision="FP16">
					<dim>1280</dim>
					<dim>1280</dim>
				</port>
				<port id="1" precision="FP16">
					<dim>1280</dim>
					<dim>1</dim>
				</port>
			</input>
			<output>
				<port id="2" precision="FP16">
					<dim>1280</dim>
					<dim>1280</dim>
				</port>
			</output>
		</layer>
		<layer id="40" name="self.layers.0.self_attn.q_proj.weight/scale" type="Const" version="opset1">
			<data element_type="f16" shape="1280, 1" offset="14754588" size="2560" />
			<output>
				<port id="0" precision="FP16">
					<dim>1280</dim>
					<dim>1</dim>
				</port>
			</output>
		</layer>
		<layer id="41" name="self.layers.0.self_attn.q_proj.weight/fq_weights_1" type="Multiply" version="opset1">
			<data auto_broadcast="numpy" />
			<input>
				<port id="0" precision="FP16">
					<dim>1280</dim>
					<dim>1280</dim>
				</port>
				<port id="1" precision="FP16">
					<dim>1280</dim>
					<dim>1</dim>
				</port>
			</input>
			<output>
				<port id="2" precision="FP16">
					<dim>1280</dim>
					<dim>1280</dim>
				</port>
			</output>
		</layer>
		<layer id="42" name="self.layers.0.self_attn.q_proj.weight/fq_weights_1/convert" type="Convert" version="opset1">
			<data destination_type="f32" />
			<input>
				<port id="0" precision="FP16">
					<dim>1280</dim>
					<dim>1280</dim>
				</port>
			</input>
			<output>
				<port id="1" precision="FP32">
					<dim>1280</dim>
					<dim>1280</dim>
				</port>
			</output>
		</layer>
		<layer id="43" name="__module.layers.0.self_attn.q_proj/aten::linear/MatMul" type="MatMul" version="opset1">
			<data transpose_a="false" transpose_b="true" />
			<input>
				<port id="0" precision="FP32">
					<dim>-1</dim>
					<dim>1500</dim>
					<dim>1280</dim>
				</port>
				<port id="1" precision="FP32">
					<dim>1280</dim>
					<dim>1280</dim>
				</port>
			</input>
			<output>
				<port id="2" precision="FP32">
					<dim>-1</dim>
					<dim>1500</dim>
					<dim>1280</dim>
				</port>
			</output>
		</layer>
		<layer id="44" name="Constant_20174" type="Const" version="opset1">
			<data element_type="f32" shape="1, 1, 1" offset="14757148" size="4" />
			<output>
				<port id="0" precision="FP32">
					<dim>1</dim>
					<dim>1</dim>
					<dim>1</dim>
				</port>
			</output>
		</layer>
		<layer id="45" name="Multiply_19715" type="Multiply" version="opset1">
			<data auto_broadcast="numpy" />
			<input>
				<port id="0" precision="FP32">
					<dim>-1</dim>
					<dim>1500</dim>
					<dim>1280</dim>
				</port>
				<port id="1" precision="FP32">
					<dim>1</dim>
					<dim>1</dim>
					<dim>1</dim>
				</port>
			</input>
			<output>
				<port id="2" precision="FP32">
					<dim>-1</dim>
					<dim>1500</dim>
					<dim>1280</dim>
				</port>
			</output>
		</layer>
		<layer id="46" name="Constant_20175" type="Const" version="opset1">
			<data element_type="f32" shape="1, 1, 1280" offset="14757152" size="5120" />
			<output>
				<port id="0" precision="FP32">
					<dim>1</dim>
					<dim>1</dim>
					<dim>1280</dim>
				</port>
			</output>
		</layer>
		<layer id="47" name="__module.layers.0.self_attn/aten::mul/Multiply" type="Add" version="opset1">
			<data auto_broadcast="numpy" />
			<input>
				<port id="0" precision="FP32">
					<dim>-1</dim>
					<dim>1500</dim>
					<dim>1280</dim>
				</port>
				<port id="1" precision="FP32">
					<dim>1</dim>
					<dim>1</dim>
					<dim>1280</dim>
				</port>
			</input>
			<output>
				<port id="2" precision="FP32" names="188,query_states.1">
					<dim>-1</dim>
					<dim>1500</dim>
					<dim>1280</dim>
				</port>
			</output>
		</layer>
		<layer id="48" name="Constant_21074" type="Const" version="opset1">
			<data element_type="i64" shape="4" offset="14762272" size="32" />
			<output>
				<port id="0" precision="I64">
					<dim>4</dim>
				</port>
			</output>
		</layer>
		<layer id="49" name="__module.layers.0.self_attn/aten::view/Reshape" type="Reshape" version="opset1">
			<data special_zero="true" />
			<input>
				<port id="0" precision="FP32">
					<dim>-1</dim>
					<dim>1500</dim>
					<dim>1280</dim>
				</port>
				<port id="1" precision="I64">
					<dim>4</dim>
				</port>
			</input>
			<output>
				<port id="2" precision="FP32" names="190,query_states.3">
					<dim>-1</dim>
					<dim>1500</dim>
					<dim>20</dim>
					<dim>64</dim>
				</port>
			</output>
		</layer>
		<layer id="50" name="__module.layers.0.self_attn/aten::transpose/Constant" type="Const" version="opset1">
			<data element_type="i32" shape="4" offset="14762304" size="16" />
			<output>
				<port id="0" precision="I32">
					<dim>4</dim>
				</port>
			</output>
		</layer>
		<layer id="51" name="__module.layers.0.self_attn/aten::transpose/Transpose" type="Transpose" version="opset1">
			<input>
				<port id="0" precision="FP32">
					<dim>-1</dim>
					<dim>1500</dim>
					<dim>20</dim>
					<dim>64</dim>
				</port>
				<port id="1" precision="I32">
					<dim>4</dim>
				</port>
			</input>
			<output>
				<port id="2" precision="FP32" names="191">
					<dim>-1</dim>
					<dim>20</dim>
					<dim>1500</dim>
					<dim>64</dim>
				</port>
			</output>
		</layer>
		<layer id="52" name="self.layers.0.self_attn.k_proj.weight" type="Const" version="opset1">
			<data element_type="u8" shape="1280, 1280" offset="14762320" size="1638400" />
			<output>
				<port id="0" precision="U8">
					<dim>1280</dim>
					<dim>1280</dim>
				</port>
			</output>
		</layer>
		<layer id="53" name="Convert_370901" type="Convert" version="opset1">
			<data destination_type="f16" />
			<input>
				<port id="0" precision="U8">
					<dim>1280</dim>
					<dim>1280</dim>
				</port>
			</input>
			<output>
				<port id="1" precision="FP16">
					<dim>1280</dim>
					<dim>1280</dim>
				</port>
			</output>
		</layer>
		<layer id="54" name="self.layers.0.self_attn.k_proj.weight/zero_point" type="Const" version="opset1">
			<data element_type="u8" shape="1280, 1" offset="16400720" size="1280" />
			<output>
				<port id="0" precision="U8">
					<dim>1280</dim>
					<dim>1</dim>
				</port>
			</output>
		</layer>
		<layer id="55" name="Convert_370904" type="Convert" version="opset1">
			<data destination_type="f16" />
			<input>
				<port id="0" precision="U8">
					<dim>1280</dim>
					<dim>1</dim>
				</port>
			</input>
			<output>
				<port id="1" precision="FP16">
					<dim>1280</dim>
					<dim>1</dim>
				</port>
			</output>
		</layer>
		<layer id="56" name="self.layers.0.self_attn.k_proj.weight/zero_point/subtract" type="Subtract" version="opset1">
			<data auto_broadcast="numpy" />
			<input>
				<port id="0" precision="FP16">
					<dim>1280</dim>
					<dim>1280</dim>
				</port>
				<port id="1" precision="FP16">
					<dim>1280</dim>
					<dim>1</dim>
				</port>
			</input>
			<output>
				<port id="2" precision="FP16">
					<dim>1280</dim>
					<dim>1280</dim>
				</port>
			</output>
		</layer>
		<layer id="57" name="self.layers.0.self_attn.k_proj.weight/scale" type="Const" version="opset1">
			<data element_type="f16" shape="1280, 1" offset="16402000" size="2560" />
			<output>
				<port id="0" precision="FP16">
					<dim>1280</dim>
					<dim>1</dim>
				</port>
			</output>
		</layer>
		<layer id="58" name="self.layers.0.self_attn.k_proj.weight/fq_weights_1" type="Multiply" version="opset1">
			<data auto_broadcast="numpy" />
			<input>
				<port id="0" precision="FP16">
					<dim>1280</dim>
					<dim>1280</dim>
				</port>
				<port id="1" precision="FP16">
					<dim>1280</dim>
					<dim>1</dim>
				</port>
			</input>
			<output>
				<port id="2" precision="FP16">
					<dim>1280</dim>
					<dim>1280</dim>
				</port>
			</output>
		</layer>
		<layer id="59" name="self.layers.0.self_attn.k_proj.weight/fq_weights_1/convert" type="Convert" version="opset1">
			<data destination_type="f32" />
			<input>
				<port id="0" precision="FP16">
					<dim>1280</dim>
					<dim>1280</dim>
				</port>
			</input>
			<output>
				<port id="1" precision="FP32">
					<dim>1280</dim>
					<dim>1280</dim>
				</port>
			</output>
		</layer>
		<layer id="60" name="__module.layers.0.self_attn.k_proj/aten::linear/MatMul" type="MatMul" version="opset1">
			<data transpose_a="false" transpose_b="true" />
			<input>
				<port id="0" precision="FP32">
					<dim>-1</dim>
					<dim>1500</dim>
					<dim>1280</dim>
				</port>
				<port id="1" precision="FP32">
					<dim>1280</dim>
					<dim>1280</dim>
				</port>
			</input>
			<output>
				<port id="2" precision="FP32" names="194">
					<dim>-1</dim>
					<dim>1500</dim>
					<dim>1280</dim>
				</port>
			</output>
		</layer>
		<layer id="61" name="Constant_21075" type="Const" version="opset1">
			<data element_type="i64" shape="4" offset="14762272" size="32" />
			<output>
				<port id="0" precision="I64">
					<dim>4</dim>
				</port>
			</output>
		</layer>
		<layer id="62" name="__module.layers.0.self_attn/aten::view/Reshape_1" type="Reshape" version="opset1">
			<data special_zero="true" />
			<input>
				<port id="0" precision="FP32">
					<dim>-1</dim>
					<dim>1500</dim>
					<dim>1280</dim>
				</port>
				<port id="1" precision="I64">
					<dim>4</dim>
				</port>
			</input>
			<output>
				<port id="2" precision="FP32" names="196,key_states.1">
					<dim>-1</dim>
					<dim>1500</dim>
					<dim>20</dim>
					<dim>64</dim>
				</port>
			</output>
		</layer>
		<layer id="63" name="__module.layers.0.self_attn/aten::transpose/Constant_1" type="Const" version="opset1">
			<data element_type="i32" shape="4" offset="14762304" size="16" />
			<output>
				<port id="0" precision="I32">
					<dim>4</dim>
				</port>
			</output>
		</layer>
		<layer id="64" name="__module.layers.0.self_attn/aten::transpose/Transpose_1" type="Transpose" version="opset1">
			<input>
				<port id="0" precision="FP32">
					<dim>-1</dim>
					<dim>1500</dim>
					<dim>20</dim>
					<dim>64</dim>
				</port>
				<port id="1" precision="I32">
					<dim>4</dim>
				</port>
			</input>
			<output>
				<port id="2" precision="FP32" names="202">
					<dim>-1</dim>
					<dim>20</dim>
					<dim>1500</dim>
					<dim>64</dim>
				</port>
			</output>
		</layer>
		<layer id="65" name="self.layers.0.self_attn.v_proj.weight" type="Const" version="opset1">
			<data element_type="u8" shape="1280, 1280" offset="16404560" size="1638400" />
			<output>
				<port id="0" precision="U8">
					<dim>1280</dim>
					<dim>1280</dim>
				</port>
			</output>
		</layer>
		<layer id="66" name="Convert_366123" type="Convert" version="opset1">
			<data destination_type="f16" />
			<input>
				<port id="0" precision="U8">
					<dim>1280</dim>
					<dim>1280</dim>
				</port>
			</input>
			<output>
				<port id="1" precision="FP16">
					<dim>1280</dim>
					<dim>1280</dim>
				</port>
			</output>
		</layer>
		<layer id="67" name="self.layers.0.self_attn.v_proj.weight/zero_point" type="Const" version="opset1">
			<data element_type="u8" shape="1280, 1" offset="18042960" size="1280" />
			<output>
				<port id="0" precision="U8">
					<dim>1280</dim>
					<dim>1</dim>
				</port>
			</output>
		</layer>
		<layer id="68" name="Convert_366126" type="Convert" version="opset1">
			<data destination_type="f16" />
			<input>
				<port id="0" precision="U8">
					<dim>1280</dim>
					<dim>1</dim>
				</port>
			</input>
			<output>
				<port id="1" precision="FP16">
					<dim>1280</dim>
					<dim>1</dim>
				</port>
			</output>
		</layer>
		<layer id="69" name="self.layers.0.self_attn.v_proj.weight/zero_point/subtract" type="Subtract" version="opset1">
			<data auto_broadcast="numpy" />
			<input>
				<port id="0" precision="FP16">
					<dim>1280</dim>
					<dim>1280</dim>
				</port>
				<port id="1" precision="FP16">
					<dim>1280</dim>
					<dim>1</dim>
				</port>
			</input>
			<output>
				<port id="2" precision="FP16">
					<dim>1280</dim>
					<dim>1280</dim>
				</port>
			</output>
		</layer>
		<layer id="70" name="self.layers.0.self_attn.v_proj.weight/scale" type="Const" version="opset1">
			<data element_type="f16" shape="1280, 1" offset="18044240" size="2560" />
			<output>
				<port id="0" precision="FP16">
					<dim>1280</dim>
					<dim>1</dim>
				</port>
			</output>
		</layer>
		<layer id="71" name="self.layers.0.self_attn.v_proj.weight/fq_weights_1" type="Multiply" version="opset1">
			<data auto_broadcast="numpy" />
			<input>
				<port id="0" precision="FP16">
					<dim>1280</dim>
					<dim>1280</dim>
				</port>
				<port id="1" precision="FP16">
					<dim>1280</dim>
					<dim>1</dim>
				</port>
			</input>
			<output>
				<port id="2" precision="FP16">
					<dim>1280</dim>
					<dim>1280</dim>
				</port>
			</output>
		</layer>
		<layer id="72" name="self.layers.0.self_attn.v_proj.weight/fq_weights_1/convert" type="Convert" version="opset1">
			<data destination_type="f32" />
			<input>
				<port id="0" precision="FP16">
					<dim>1280</dim>
					<dim>1280</dim>
				</port>
			</input>
			<output>
				<port id="1" precision="FP32">
					<dim>1280</dim>
					<dim>1280</dim>
				</port>
			</output>
		</layer>
		<layer id="73" name="__module.layers.0.self_attn.v_proj/aten::linear/MatMul" type="MatMul" version="opset1">
			<data transpose_a="false" transpose_b="true" />
			<input>
				<port id="0" precision="FP32">
					<dim>-1</dim>
					<dim>1500</dim>
					<dim>1280</dim>
				</port>
				<port id="1" precision="FP32">
					<dim>1280</dim>
					<dim>1280</dim>
				</port>
			</input>
			<output>
				<port id="2" precision="FP32">
					<dim>-1</dim>
					<dim>1500</dim>
					<dim>1280</dim>
				</port>
			</output>
		</layer>
		<layer id="74" name="Constant_20176" type="Const" version="opset1">
			<data element_type="f32" shape="1, 1, 1280" offset="18046800" size="5120" />
			<output>
				<port id="0" precision="FP32">
					<dim>1</dim>
					<dim>1</dim>
					<dim>1280</dim>
				</port>
			</output>
		</layer>
		<layer id="75" name="__module.layers.0.self_attn.v_proj/aten::linear/Add" type="Add" version="opset1">
			<data auto_broadcast="numpy" />
			<input>
				<port id="0" precision="FP32">
					<dim>-1</dim>
					<dim>1500</dim>
					<dim>1280</dim>
				</port>
				<port id="1" precision="FP32">
					<dim>1</dim>
					<dim>1</dim>
					<dim>1280</dim>
				</port>
			</input>
			<output>
				<port id="2" precision="FP32" names="199">
					<dim>-1</dim>
					<dim>1500</dim>
					<dim>1280</dim>
				</port>
			</output>
		</layer>
		<layer id="76" name="Constant_21076" type="Const" version="opset1">
			<data element_type="i64" shape="4" offset="14762272" size="32" />
			<output>
				<port id="0" precision="I64">
					<dim>4</dim>
				</port>
			</output>
		</layer>
		<layer id="77" name="__module.layers.0.self_attn/aten::view/Reshape_2" type="Reshape" version="opset1">
			<data special_zero="true" />
			<input>
				<port id="0" precision="FP32">
					<dim>-1</dim>
					<dim>1500</dim>
					<dim>1280</dim>
				</port>
				<port id="1" precision="I64">
					<dim>4</dim>
				</port>
			</input>
			<output>
				<port id="2" precision="FP32" names="201,value_states.1">
					<dim>-1</dim>
					<dim>1500</dim>
					<dim>20</dim>
					<dim>64</dim>
				</port>
			</output>
		</layer>
		<layer id="78" name="__module.layers.0.self_attn/aten::transpose/Constant_2" type="Const" version="opset1">
			<data element_type="i32" shape="4" offset="14762304" size="16" />
			<output>
				<port id="0" precision="I32">
					<dim>4</dim>
				</port>
			</output>
		</layer>
		<layer id="79" name="__module.layers.0.self_attn/aten::transpose/Transpose_2" type="Transpose" version="opset1">
			<input>
				<port id="0" precision="FP32">
					<dim>-1</dim>
					<dim>1500</dim>
					<dim>20</dim>
					<dim>64</dim>
				</port>
				<port id="1" precision="I32">
					<dim>4</dim>
				</port>
			</input>
			<output>
				<port id="2" precision="FP32" names="204">
					<dim>-1</dim>
					<dim>20</dim>
					<dim>1500</dim>
					<dim>64</dim>
				</port>
			</output>
		</layer>
		<layer id="80" name="__module.layers.0.self_attn/aten::scaled_dot_product_attention/ConvertLike" type="Const" version="opset1">
			<data element_type="f32" shape="" offset="18051920" size="4" />
			<output>
				<port id="0" precision="FP32" />
			</output>
		</layer>
		<layer id="81" name="__module.layers.0.self_attn/aten::scaled_dot_product_attention/ConvertLike_1" type="Const" version="opset1">
			<data element_type="f32" shape="" offset="18051924" size="4" />
			<output>
				<port id="0" precision="FP32" />
			</output>
		</layer>
		<layer id="82" name="__module.layers.0.self_attn/aten::scaled_dot_product_attention/ScaledDotProductAttention" type="ScaledDotProductAttention" version="opset13">
			<data causal="false" />
			<input>
				<port id="0" precision="FP32">
					<dim>-1</dim>
					<dim>20</dim>
					<dim>1500</dim>
					<dim>64</dim>
				</port>
				<port id="1" precision="FP32">
					<dim>-1</dim>
					<dim>20</dim>
					<dim>1500</dim>
					<dim>64</dim>
				</port>
				<port id="2" precision="FP32">
					<dim>-1</dim>
					<dim>20</dim>
					<dim>1500</dim>
					<dim>64</dim>
				</port>
				<port id="3" precision="FP32" />
				<port id="4" precision="FP32" />
			</input>
			<output>
				<port id="5" precision="FP32" names="209,attn_output.1">
					<dim>-1</dim>
					<dim>20</dim>
					<dim>1500</dim>
					<dim>64</dim>
				</port>
			</output>
		</layer>
		<layer id="83" name="__module.layers.0.self_attn/aten::transpose/Constant_3" type="Const" version="opset1">
			<data element_type="i32" shape="4" offset="14762304" size="16" />
			<output>
				<port id="0" precision="I32">
					<dim>4</dim>
				</port>
			</output>
		</layer>
		<layer id="84" name="__module.layers.0.self_attn/aten::transpose/Transpose_3" type="Transpose" version="opset1">
			<input>
				<port id="0" precision="FP32">
					<dim>-1</dim>
					<dim>20</dim>
					<dim>1500</dim>
					<dim>64</dim>
				</port>
				<port id="1" precision="I32">
					<dim>4</dim>
				</port>
			</input>
			<output>
				<port id="2" precision="FP32" names="210">
					<dim>-1</dim>
					<dim>1500</dim>
					<dim>20</dim>
					<dim>64</dim>
				</port>
			</output>
		</layer>
		<layer id="85" name="Constant_21077" type="Const" version="opset1">
			<data element_type="i64" shape="3" offset="18051928" size="24" />
			<output>
				<port id="0" precision="I64">
					<dim>3</dim>
				</port>
			</output>
		</layer>
		<layer id="86" name="__module.layers.0.self_attn/aten::reshape/Reshape" type="Reshape" version="opset1">
			<data special_zero="true" />
			<input>
				<port id="0" precision="FP32">
					<dim>-1</dim>
					<dim>1500</dim>
					<dim>20</dim>
					<dim>64</dim>
				</port>
				<port id="1" precision="I64">
					<dim>3</dim>
				</port>
			</input>
			<output>
				<port id="2" precision="FP32" names="213">
					<dim>-1</dim>
					<dim>1500</dim>
					<dim>1280</dim>
				</port>
			</output>
		</layer>
		<layer id="87" name="self.layers.0.self_attn.out_proj.weight" type="Const" version="opset1">
			<data element_type="u8" shape="1280, 1280" offset="18051952" size="1638400" />
			<output>
				<port id="0" precision="U8">
					<dim>1280</dim>
					<dim>1280</dim>
				</port>
			</output>
		</layer>
		<layer id="88" name="Convert_380457" type="Convert" version="opset1">
			<data destination_type="f16" />
			<input>
				<port id="0" precision="U8">
					<dim>1280</dim>
					<dim>1280</dim>
				</port>
			</input>
			<output>
				<port id="1" precision="FP16">
					<dim>1280</dim>
					<dim>1280</dim>
				</port>
			</output>
		</layer>
		<layer id="89" name="self.layers.0.self_attn.out_proj.weight/zero_point" type="Const" version="opset1">
			<data element_type="u8" shape="1280, 1" offset="19690352" size="1280" />
			<output>
				<port id="0" precision="U8">
					<dim>1280</dim>
					<dim>1</dim>
				</port>
			</output>
		</layer>
		<layer id="90" name="Convert_380460" type="Convert" version="opset1">
			<data destination_type="f16" />
			<input>
				<port id="0" precision="U8">
					<dim>1280</dim>
					<dim>1</dim>
				</port>
			</input>
			<output>
				<port id="1" precision="FP16">
					<dim>1280</dim>
					<dim>1</dim>
				</port>
			</output>
		</layer>
		<layer id="91" name="self.layers.0.self_attn.out_proj.weight/zero_point/subtract" type="Subtract" version="opset1">
			<data auto_broadcast="numpy" />
			<input>
				<port id="0" precision="FP16">
					<dim>1280</dim>
					<dim>1280</dim>
				</port>
				<port id="1" precision="FP16">
					<dim>1280</dim>
					<dim>1</dim>
				</port>
			</input>
			<output>
				<port id="2" precision="FP16">
					<dim>1280</dim>
					<dim>1280</dim>
				</port>
			</output>
		</layer>
		<layer id="92" name="self.layers.0.self_attn.out_proj.weight/scale" type="Const" version="opset1">
			<data element_type="f16" shape="1280, 1" offset="19691632" size="2560" />
			<output>
				<port id="0" precision="FP16">
					<dim>1280</dim>
					<dim>1</dim>
				</port>
			</output>
		</layer>
		<layer id="93" name="self.layers.0.self_attn.out_proj.weight/fq_weights_1" type="Multiply" version="opset1">
			<data auto_broadcast="numpy" />
			<input>
				<port id="0" precision="FP16">
					<dim>1280</dim>
					<dim>1280</dim>
				</port>
				<port id="1" precision="FP16">
					<dim>1280</dim>
					<dim>1</dim>
				</port>
			</input>
			<output>
				<port id="2" precision="FP16">
					<dim>1280</dim>
					<dim>1280</dim>
				</port>
			</output>
		</layer>
		<layer id="94" name="self.layers.0.self_attn.out_proj.weight/fq_weights_1/convert" type="Convert" version="opset1">
			<data destination_type="f32" />
			<input>
				<port id="0" precision="FP16">
					<dim>1280</dim>
					<dim>1280</dim>
				</port>
			</input>
			<output>
				<port id="1" precision="FP32">
					<dim>1280</dim>
					<dim>1280</dim>
				</port>
			</output>
		</layer>
		<layer id="95" name="__module.layers.0.self_attn.out_proj/aten::linear/MatMul" type="MatMul" version="opset1">
			<data transpose_a="false" transpose_b="true" />
			<input>
				<port id="0" precision="FP32">
					<dim>-1</dim>
					<dim>1500</dim>
					<dim>1280</dim>
				</port>
				<port id="1" precision="FP32">
					<dim>1280</dim>
					<dim>1280</dim>
				</port>
			</input>
			<output>
				<port id="2" precision="FP32">
					<dim>-1</dim>
					<dim>1500</dim>
					<dim>1280</dim>
				</port>
			</output>
		</layer>
		<layer id="96" name="Constant_20177" type="Const" version="opset1">
			<data element_type="f32" shape="1, 1, 1280" offset="19694192" size="5120" />
			<output>
				<port id="0" precision="FP32">
					<dim>1</dim>
					<dim>1</dim>
					<dim>1280</dim>
				</port>
			</output>
		</layer>
		<layer id="97" name="__module.layers.0.self_attn.out_proj/aten::linear/Add" type="Add" version="opset1">
			<data auto_broadcast="numpy" />
			<input>
				<port id="0" precision="FP32">
					<dim>-1</dim>
					<dim>1500</dim>
					<dim>1280</dim>
				</port>
				<port id="1" precision="FP32">
					<dim>1</dim>
					<dim>1</dim>
					<dim>1280</dim>
				</port>
			</input>
			<output>
				<port id="2" precision="FP32" names="217,input.11">
					<dim>-1</dim>
					<dim>1500</dim>
					<dim>1280</dim>
				</port>
			</output>
		</layer>
		<layer id="98" name="__module.layers.0/aten::add/Add" type="Add" version="opset1">
			<data auto_broadcast="numpy" />
			<input>
				<port id="0" precision="FP32">
					<dim>-1</dim>
					<dim>1500</dim>
					<dim>1280</dim>
				</port>
				<port id="1" precision="FP32">
					<dim>-1</dim>
					<dim>1500</dim>
					<dim>1280</dim>
				</port>
			</input>
			<output>
				<port id="2" precision="FP32" names="219,input.13">
					<dim>-1</dim>
					<dim>1500</dim>
					<dim>1280</dim>
				</port>
			</output>
		</layer>
		<layer id="99" name="__module.layers.0.final_layer_norm/aten::layer_norm/Multiply" type="Const" version="opset1">
			<data element_type="i32" shape="1" offset="13104664" size="4" />
			<output>
				<port id="0" precision="I32">
					<dim>1</dim>
				</port>
			</output>
		</layer>
		<layer id="100" name="__module.layers.0.final_layer_norm/aten::layer_norm/MVN" type="MVN" version="opset6">
			<data eps="9.9999997473787516e-06" normalize_variance="true" eps_mode="INSIDE_SQRT" />
			<input>
				<port id="0" precision="FP32">
					<dim>-1</dim>
					<dim>1500</dim>
					<dim>1280</dim>
				</port>
				<port id="1" precision="I32">
					<dim>1</dim>
				</port>
			</input>
			<output>
				<port id="2" precision="FP32">
					<dim>-1</dim>
					<dim>1500</dim>
					<dim>1280</dim>
				</port>
			</output>
		</layer>
		<layer id="101" name="Constant_20178" type="Const" version="opset1">
			<data element_type="f32" shape="1, 1, 1280" offset="19699312" size="5120" />
			<output>
				<port id="0" precision="FP32">
					<dim>1</dim>
					<dim>1</dim>
					<dim>1280</dim>
				</port>
			</output>
		</layer>
		<layer id="102" name="__module.layers.0.final_layer_norm/aten::layer_norm/Multiply_1" type="Multiply" version="opset1">
			<data auto_broadcast="numpy" />
			<input>
				<port id="0" precision="FP32">
					<dim>-1</dim>
					<dim>1500</dim>
					<dim>1280</dim>
				</port>
				<port id="1" precision="FP32">
					<dim>1</dim>
					<dim>1</dim>
					<dim>1280</dim>
				</port>
			</input>
			<output>
				<port id="2" precision="FP32">
					<dim>-1</dim>
					<dim>1500</dim>
					<dim>1280</dim>
				</port>
			</output>
		</layer>
		<layer id="103" name="Constant_20179" type="Const" version="opset1">
			<data element_type="f32" shape="1, 1, 1280" offset="19704432" size="5120" />
			<output>
				<port id="0" precision="FP32">
					<dim>1</dim>
					<dim>1</dim>
					<dim>1280</dim>
				</port>
			</output>
		</layer>
		<layer id="104" name="__module.layers.0.final_layer_norm/aten::layer_norm/Add" type="Add" version="opset1">
			<data auto_broadcast="numpy" />
			<input>
				<port id="0" precision="FP32">
					<dim>-1</dim>
					<dim>1500</dim>
					<dim>1280</dim>
				</port>
				<port id="1" precision="FP32">
					<dim>1</dim>
					<dim>1</dim>
					<dim>1280</dim>
				</port>
			</input>
			<output>
				<port id="2" precision="FP32" names="223,input.15">
					<dim>-1</dim>
					<dim>1500</dim>
					<dim>1280</dim>
				</port>
			</output>
		</layer>
		<layer id="105" name="self.layers.0.fc1.weight" type="Const" version="opset1">
			<data element_type="u8" shape="5120, 1280" offset="19709552" size="6553600" />
			<output>
				<port id="0" precision="U8">
					<dim>5120</dim>
					<dim>1280</dim>
				</port>
			</output>
		</layer>
		<layer id="106" name="Convert_55553" type="Convert" version="opset1">
			<data destination_type="f16" />
			<input>
				<port id="0" precision="U8">
					<dim>5120</dim>
					<dim>1280</dim>
				</port>
			</input>
			<output>
				<port id="1" precision="FP16">
					<dim>5120</dim>
					<dim>1280</dim>
				</port>
			</output>
		</layer>
		<layer id="107" name="self.layers.0.fc1.weight/zero_point" type="Const" version="opset1">
			<data element_type="u8" shape="5120, 1" offset="26263152" size="5120" />
			<output>
				<port id="0" precision="U8">
					<dim>5120</dim>
					<dim>1</dim>
				</port>
			</output>
		</layer>
		<layer id="108" name="Convert_55556" type="Convert" version="opset1">
			<data destination_type="f16" />
			<input>
				<port id="0" precision="U8">
					<dim>5120</dim>
					<dim>1</dim>
				</port>
			</input>
			<output>
				<port id="1" precision="FP16">
					<dim>5120</dim>
					<dim>1</dim>
				</port>
			</output>
		</layer>
		<layer id="109" name="self.layers.0.fc1.weight/zero_point/subtract" type="Subtract" version="opset1">
			<data auto_broadcast="numpy" />
			<input>
				<port id="0" precision="FP16">
					<dim>5120</dim>
					<dim>1280</dim>
				</port>
				<port id="1" precision="FP16">
					<dim>5120</dim>
					<dim>1</dim>
				</port>
			</input>
			<output>
				<port id="2" precision="FP16">
					<dim>5120</dim>
					<dim>1280</dim>
				</port>
			</output>
		</layer>
		<layer id="110" name="self.layers.0.fc1.weight/scale" type="Const" version="opset1">
			<data element_type="f16" shape="5120, 1" offset="26268272" size="10240" />
			<output>
				<port id="0" precision="FP16">
					<dim>5120</dim>
					<dim>1</dim>
				</port>
			</output>
		</layer>
		<layer id="111" name="self.layers.0.fc1.weight/fq_weights_1" type="Multiply" version="opset1">
			<data auto_broadcast="numpy" />
			<input>
				<port id="0" precision="FP16">
					<dim>5120</dim>
					<dim>1280</dim>
				</port>
				<port id="1" precision="FP16">
					<dim>5120</dim>
					<dim>1</dim>
				</port>
			</input>
			<output>
				<port id="2" precision="FP16">
					<dim>5120</dim>
					<dim>1280</dim>
				</port>
			</output>
		</layer>
		<layer id="112" name="self.layers.0.fc1.weight/fq_weights_1/convert" type="Convert" version="opset1">
			<data destination_type="f32" />
			<input>
				<port id="0" precision="FP16">
					<dim>5120</dim>
					<dim>1280</dim>
				</port>
			</input>
			<output>
				<port id="1" precision="FP32">
					<dim>5120</dim>
					<dim>1280</dim>
				</port>
			</output>
		</layer>
		<layer id="113" name="__module.layers.0.fc1/aten::linear/MatMul" type="MatMul" version="opset1">
			<data transpose_a="false" transpose_b="true" />
			<input>
				<port id="0" precision="FP32">
					<dim>-1</dim>
					<dim>1500</dim>
					<dim>1280</dim>
				</port>
				<port id="1" precision="FP32">
					<dim>5120</dim>
					<dim>1280</dim>
				</port>
			</input>
			<output>
				<port id="2" precision="FP32">
					<dim>-1</dim>
					<dim>1500</dim>
					<dim>5120</dim>
				</port>
			</output>
		</layer>
		<layer id="114" name="Constant_20180" type="Const" version="opset1">
			<data element_type="f32" shape="1, 1, 5120" offset="26278512" size="20480" />
			<output>
				<port id="0" precision="FP32">
					<dim>1</dim>
					<dim>1</dim>
					<dim>5120</dim>
				</port>
			</output>
		</layer>
		<layer id="115" name="__module.layers.0.fc1/aten::linear/Add" type="Add" version="opset1">
			<data auto_broadcast="numpy" />
			<input>
				<port id="0" precision="FP32">
					<dim>-1</dim>
					<dim>1500</dim>
					<dim>5120</dim>
				</port>
				<port id="1" precision="FP32">
					<dim>1</dim>
					<dim>1</dim>
					<dim>5120</dim>
				</port>
			</input>
			<output>
				<port id="2" precision="FP32" names="226,input.17">
					<dim>-1</dim>
					<dim>1500</dim>
					<dim>5120</dim>
				</port>
			</output>
		</layer>
		<layer id="116" name="__module.layers.0.activation_fn/aten::gelu/Gelu" type="Gelu" version="opset7">
			<data approximation_mode="ERF" />
			<input>
				<port id="0" precision="FP32">
					<dim>-1</dim>
					<dim>1500</dim>
					<dim>5120</dim>
				</port>
			</input>
			<output>
				<port id="1" precision="FP32" names="227,input.19">
					<dim>-1</dim>
					<dim>1500</dim>
					<dim>5120</dim>
				</port>
			</output>
		</layer>
		<layer id="117" name="self.layers.0.fc2.weight" type="Const" version="opset1">
			<data element_type="u8" shape="1280, 5120" offset="26298992" size="6553600" />
			<output>
				<port id="0" precision="U8">
					<dim>1280</dim>
					<dim>5120</dim>
				</port>
			</output>
		</layer>
		<layer id="118" name="Convert_60331" type="Convert" version="opset1">
			<data destination_type="f16" />
			<input>
				<port id="0" precision="U8">
					<dim>1280</dim>
					<dim>5120</dim>
				</port>
			</input>
			<output>
				<port id="1" precision="FP16">
					<dim>1280</dim>
					<dim>5120</dim>
				</port>
			</output>
		</layer>
		<layer id="119" name="self.layers.0.fc2.weight/zero_point" type="Const" version="opset1">
			<data element_type="u8" shape="1280, 1" offset="32852592" size="1280" />
			<output>
				<port id="0" precision="U8">
					<dim>1280</dim>
					<dim>1</dim>
				</port>
			</output>
		</layer>
		<layer id="120" name="Convert_60334" type="Convert" version="opset1">
			<data destination_type="f16" />
			<input>
				<port id="0" precision="U8">
					<dim>1280</dim>
					<dim>1</dim>
				</port>
			</input>
			<output>
				<port id="1" precision="FP16">
					<dim>1280</dim>
					<dim>1</dim>
				</port>
			</output>
		</layer>
		<layer id="121" name="self.layers.0.fc2.weight/zero_point/subtract" type="Subtract" version="opset1">
			<data auto_broadcast="numpy" />
			<input>
				<port id="0" precision="FP16">
					<dim>1280</dim>
					<dim>5120</dim>
				</port>
				<port id="1" precision="FP16">
					<dim>1280</dim>
					<dim>1</dim>
				</port>
			</input>
			<output>
				<port id="2" precision="FP16">
					<dim>1280</dim>
					<dim>5120</dim>
				</port>
			</output>
		</layer>
		<layer id="122" name="self.layers.0.fc2.weight/scale" type="Const" version="opset1">
			<data element_type="f16" shape="1280, 1" offset="32853872" size="2560" />
			<output>
				<port id="0" precision="FP16">
					<dim>1280</dim>
					<dim>1</dim>
				</port>
			</output>
		</layer>
		<layer id="123" name="self.layers.0.fc2.weight/fq_weights_1" type="Multiply" version="opset1">
			<data auto_broadcast="numpy" />
			<input>
				<port id="0" precision="FP16">
					<dim>1280</dim>
					<dim>5120</dim>
				</port>
				<port id="1" precision="FP16">
					<dim>1280</dim>
					<dim>1</dim>
				</port>
			</input>
			<output>
				<port id="2" precision="FP16">
					<dim>1280</dim>
					<dim>5120</dim>
				</port>
			</output>
		</layer>
		<layer id="124" name="self.layers.0.fc2.weight/fq_weights_1/convert" type="Convert" version="opset1">
			<data destination_type="f32" />
			<input>
				<port id="0" precision="FP16">
					<dim>1280</dim>
					<dim>5120</dim>
				</port>
			</input>
			<output>
				<port id="1" precision="FP32">
					<dim>1280</dim>
					<dim>5120</dim>
				</port>
			</output>
		</layer>
		<layer id="125" name="__module.layers.0.fc2/aten::linear/MatMul" type="MatMul" version="opset1">
			<data transpose_a="false" transpose_b="true" />
			<input>
				<port id="0" precision="FP32">
					<dim>-1</dim>
					<dim>1500</dim>
					<dim>5120</dim>
				</port>
				<port id="1" precision="FP32">
					<dim>1280</dim>
					<dim>5120</dim>
				</port>
			</input>
			<output>
				<port id="2" precision="FP32">
					<dim>-1</dim>
					<dim>1500</dim>
					<dim>1280</dim>
				</port>
			</output>
		</layer>
		<layer id="126" name="Constant_20181" type="Const" version="opset1">
			<data element_type="f32" shape="1, 1, 1280" offset="32856432" size="5120" />
			<output>
				<port id="0" precision="FP32">
					<dim>1</dim>
					<dim>1</dim>
					<dim>1280</dim>
				</port>
			</output>
		</layer>
		<layer id="127" name="__module.layers.0.fc2/aten::linear/Add" type="Add" version="opset1">
			<data auto_broadcast="numpy" />
			<input>
				<port id="0" precision="FP32">
					<dim>-1</dim>
					<dim>1500</dim>
					<dim>1280</dim>
				</port>
				<port id="1" precision="FP32">
					<dim>1</dim>
					<dim>1</dim>
					<dim>1280</dim>
				</port>
			</input>
			<output>
				<port id="2" precision="FP32" names="231,input.23">
					<dim>-1</dim>
					<dim>1500</dim>
					<dim>1280</dim>
				</port>
			</output>
		</layer>
		<layer id="128" name="__module.layers.0/aten::add/Add_1" type="Add" version="opset1">
			<data auto_broadcast="numpy" />
			<input>
				<port id="0" precision="FP32">
					<dim>-1</dim>
					<dim>1500</dim>
					<dim>1280</dim>
				</port>
				<port id="1" precision="FP32">
					<dim>-1</dim>
					<dim>1500</dim>
					<dim>1280</dim>
				</port>
			</input>
			<output>
				<port id="2" precision="FP32" names="233,input.25">
					<dim>-1</dim>
					<dim>1500</dim>
					<dim>1280</dim>
				</port>
			</output>
		</layer>
		<layer id="129" name="__module.layers.1.self_attn_layer_norm/aten::layer_norm/Multiply" type="Const" version="opset1">
			<data element_type="i32" shape="1" offset="13104664" size="4" />
			<output>
				<port id="0" precision="I32">
					<dim>1</dim>
				</port>
			</output>
		</layer>
		<layer id="130" name="__module.layers.1.self_attn_layer_norm/aten::layer_norm/MVN" type="MVN" version="opset6">
			<data eps="9.9999997473787516e-06" normalize_variance="true" eps_mode="INSIDE_SQRT" />
			<input>
				<port id="0" precision="FP32">
					<dim>-1</dim>
					<dim>1500</dim>
					<dim>1280</dim>
				</port>
				<port id="1" precision="I32">
					<dim>1</dim>
				</port>
			</input>
			<output>
				<port id="2" precision="FP32">
					<dim>-1</dim>
					<dim>1500</dim>
					<dim>1280</dim>
				</port>
			</output>
		</layer>
		<layer id="131" name="Constant_20182" type="Const" version="opset1">
			<data element_type="f32" shape="1, 1, 1280" offset="32861552" size="5120" />
			<output>
				<port id="0" precision="FP32">
					<dim>1</dim>
					<dim>1</dim>
					<dim>1280</dim>
				</port>
			</output>
		</layer>
		<layer id="132" name="__module.layers.1.self_attn_layer_norm/aten::layer_norm/Multiply_1" type="Multiply" version="opset1">
			<data auto_broadcast="numpy" />
			<input>
				<port id="0" precision="FP32">
					<dim>-1</dim>
					<dim>1500</dim>
					<dim>1280</dim>
				</port>
				<port id="1" precision="FP32">
					<dim>1</dim>
					<dim>1</dim>
					<dim>1280</dim>
				</port>
			</input>
			<output>
				<port id="2" precision="FP32">
					<dim>-1</dim>
					<dim>1500</dim>
					<dim>1280</dim>
				</port>
			</output>
		</layer>
		<layer id="133" name="Constant_20183" type="Const" version="opset1">
			<data element_type="f32" shape="1, 1, 1280" offset="32866672" size="5120" />
			<output>
				<port id="0" precision="FP32">
					<dim>1</dim>
					<dim>1</dim>
					<dim>1280</dim>
				</port>
			</output>
		</layer>
		<layer id="134" name="__module.layers.1.self_attn_layer_norm/aten::layer_norm/Add" type="Add" version="opset1">
			<data auto_broadcast="numpy" />
			<input>
				<port id="0" precision="FP32">
					<dim>-1</dim>
					<dim>1500</dim>
					<dim>1280</dim>
				</port>
				<port id="1" precision="FP32">
					<dim>1</dim>
					<dim>1</dim>
					<dim>1280</dim>
				</port>
			</input>
			<output>
				<port id="2" precision="FP32" names="258,hidden_states.7">
					<dim>-1</dim>
					<dim>1500</dim>
					<dim>1280</dim>
				</port>
			</output>
		</layer>
		<layer id="135" name="self.layers.1.self_attn.q_proj.weight" type="Const" version="opset1">
			<data element_type="u8" shape="1280, 1280" offset="32871792" size="1638400" />
			<output>
				<port id="0" precision="U8">
					<dim>1280</dim>
					<dim>1280</dim>
				</port>
			</output>
		</layer>
		<layer id="136" name="Convert_394791" type="Convert" version="opset1">
			<data destination_type="f16" />
			<input>
				<port id="0" precision="U8">
					<dim>1280</dim>
					<dim>1280</dim>
				</port>
			</input>
			<output>
				<port id="1" precision="FP16">
					<dim>1280</dim>
					<dim>1280</dim>
				</port>
			</output>
		</layer>
		<layer id="137" name="self.layers.1.self_attn.q_proj.weight/zero_point" type="Const" version="opset1">
			<data element_type="u8" shape="1280, 1" offset="34510192" size="1280" />
			<output>
				<port id="0" precision="U8">
					<dim>1280</dim>
					<dim>1</dim>
				</port>
			</output>
		</layer>
		<layer id="138" name="Convert_394794" type="Convert" version="opset1">
			<data destination_type="f16" />
			<input>
				<port id="0" precision="U8">
					<dim>1280</dim>
					<dim>1</dim>
				</port>
			</input>
			<output>
				<port id="1" precision="FP16">
					<dim>1280</dim>
					<dim>1</dim>
				</port>
			</output>
		</layer>
		<layer id="139" name="self.layers.1.self_attn.q_proj.weight/zero_point/subtract" type="Subtract" version="opset1">
			<data auto_broadcast="numpy" />
			<input>
				<port id="0" precision="FP16">
					<dim>1280</dim>
					<dim>1280</dim>
				</port>
				<port id="1" precision="FP16">
					<dim>1280</dim>
					<dim>1</dim>
				</port>
			</input>
			<output>
				<port id="2" precision="FP16">
					<dim>1280</dim>
					<dim>1280</dim>
				</port>
			</output>
		</layer>
		<layer id="140" name="self.layers.1.self_attn.q_proj.weight/scale" type="Const" version="opset1">
			<data element_type="f16" shape="1280, 1" offset="34511472" size="2560" />
			<output>
				<port id="0" precision="FP16">
					<dim>1280</dim>
					<dim>1</dim>
				</port>
			</output>
		</layer>
		<layer id="141" name="self.layers.1.self_attn.q_proj.weight/fq_weights_1" type="Multiply" version="opset1">
			<data auto_broadcast="numpy" />
			<input>
				<port id="0" precision="FP16">
					<dim>1280</dim>
					<dim>1280</dim>
				</port>
				<port id="1" precision="FP16">
					<dim>1280</dim>
					<dim>1</dim>
				</port>
			</input>
			<output>
				<port id="2" precision="FP16">
					<dim>1280</dim>
					<dim>1280</dim>
				</port>
			</output>
		</layer>
		<layer id="142" name="self.layers.1.self_attn.q_proj.weight/fq_weights_1/convert" type="Convert" version="opset1">
			<data destination_type="f32" />
			<input>
				<port id="0" precision="FP16">
					<dim>1280</dim>
					<dim>1280</dim>
				</port>
			</input>
			<output>
				<port id="1" precision="FP32">
					<dim>1280</dim>
					<dim>1280</dim>
				</port>
			</output>
		</layer>
		<layer id="143" name="__module.layers.1.self_attn.q_proj/aten::linear/MatMul" type="MatMul" version="opset1">
			<data transpose_a="false" transpose_b="true" />
			<input>
				<port id="0" precision="FP32">
					<dim>-1</dim>
					<dim>1500</dim>
					<dim>1280</dim>
				</port>
				<port id="1" precision="FP32">
					<dim>1280</dim>
					<dim>1280</dim>
				</port>
			</input>
			<output>
				<port id="2" precision="FP32">
					<dim>-1</dim>
					<dim>1500</dim>
					<dim>1280</dim>
				</port>
			</output>
		</layer>
		<layer id="144" name="Constant_20184" type="Const" version="opset1">
			<data element_type="f32" shape="1, 1, 1" offset="14757148" size="4" />
			<output>
				<port id="0" precision="FP32">
					<dim>1</dim>
					<dim>1</dim>
					<dim>1</dim>
				</port>
			</output>
		</layer>
		<layer id="145" name="Multiply_19719" type="Multiply" version="opset1">
			<data auto_broadcast="numpy" />
			<input>
				<port id="0" precision="FP32">
					<dim>-1</dim>
					<dim>1500</dim>
					<dim>1280</dim>
				</port>
				<port id="1" precision="FP32">
					<dim>1</dim>
					<dim>1</dim>
					<dim>1</dim>
				</port>
			</input>
			<output>
				<port id="2" precision="FP32">
					<dim>-1</dim>
					<dim>1500</dim>
					<dim>1280</dim>
				</port>
			</output>
		</layer>
		<layer id="146" name="Constant_20185" type="Const" version="opset1">
			<data element_type="f32" shape="1, 1, 1280" offset="34514032" size="5120" />
			<output>
				<port id="0" precision="FP32">
					<dim>1</dim>
					<dim>1</dim>
					<dim>1280</dim>
				</port>
			</output>
		</layer>
		<layer id="147" name="__module.layers.1.self_attn/aten::mul/Multiply" type="Add" version="opset1">
			<data auto_broadcast="numpy" />
			<input>
				<port id="0" precision="FP32">
					<dim>-1</dim>
					<dim>1500</dim>
					<dim>1280</dim>
				</port>
				<port id="1" precision="FP32">
					<dim>1</dim>
					<dim>1</dim>
					<dim>1280</dim>
				</port>
			</input>
			<output>
				<port id="2" precision="FP32" names="268,query_states.5">
					<dim>-1</dim>
					<dim>1500</dim>
					<dim>1280</dim>
				</port>
			</output>
		</layer>
		<layer id="148" name="Constant_21078" type="Const" version="opset1">
			<data element_type="i64" shape="4" offset="14762272" size="32" />
			<output>
				<port id="0" precision="I64">
					<dim>4</dim>
				</port>
			</output>
		</layer>
		<layer id="149" name="__module.layers.1.self_attn/aten::view/Reshape" type="Reshape" version="opset1">
			<data special_zero="true" />
			<input>
				<port id="0" precision="FP32">
					<dim>-1</dim>
					<dim>1500</dim>
					<dim>1280</dim>
				</port>
				<port id="1" precision="I64">
					<dim>4</dim>
				</port>
			</input>
			<output>
				<port id="2" precision="FP32" names="270,query_states.7">
					<dim>-1</dim>
					<dim>1500</dim>
					<dim>20</dim>
					<dim>64</dim>
				</port>
			</output>
		</layer>
		<layer id="150" name="__module.layers.1.self_attn/aten::transpose/Constant" type="Const" version="opset1">
			<data element_type="i32" shape="4" offset="14762304" size="16" />
			<output>
				<port id="0" precision="I32">
					<dim>4</dim>
				</port>
			</output>
		</layer>
		<layer id="151" name="__module.layers.1.self_attn/aten::transpose/Transpose" type="Transpose" version="opset1">
			<input>
				<port id="0" precision="FP32">
					<dim>-1</dim>
					<dim>1500</dim>
					<dim>20</dim>
					<dim>64</dim>
				</port>
				<port id="1" precision="I32">
					<dim>4</dim>
				</port>
			</input>
			<output>
				<port id="2" precision="FP32" names="271">
					<dim>-1</dim>
					<dim>20</dim>
					<dim>1500</dim>
					<dim>64</dim>
				</port>
			</output>
		</layer>
		<layer id="152" name="self.layers.1.self_attn.k_proj.weight" type="Const" version="opset1">
			<data element_type="u8" shape="1280, 1280" offset="34519152" size="1638400" />
			<output>
				<port id="0" precision="U8">
					<dim>1280</dim>
					<dim>1280</dim>
				</port>
			</output>
		</layer>
		<layer id="153" name="Convert_390013" type="Convert" version="opset1">
			<data destination_type="f16" />
			<input>
				<port id="0" precision="U8">
					<dim>1280</dim>
					<dim>1280</dim>
				</port>
			</input>
			<output>
				<port id="1" precision="FP16">
					<dim>1280</dim>
					<dim>1280</dim>
				</port>
			</output>
		</layer>
		<layer id="154" name="self.layers.1.self_attn.k_proj.weight/zero_point" type="Const" version="opset1">
			<data element_type="u8" shape="1280, 1" offset="36157552" size="1280" />
			<output>
				<port id="0" precision="U8">
					<dim>1280</dim>
					<dim>1</dim>
				</port>
			</output>
		</layer>
		<layer id="155" name="Convert_390016" type="Convert" version="opset1">
			<data destination_type="f16" />
			<input>
				<port id="0" precision="U8">
					<dim>1280</dim>
					<dim>1</dim>
				</port>
			</input>
			<output>
				<port id="1" precision="FP16">
					<dim>1280</dim>
					<dim>1</dim>
				</port>
			</output>
		</layer>
		<layer id="156" name="self.layers.1.self_attn.k_proj.weight/zero_point/subtract" type="Subtract" version="opset1">
			<data auto_broadcast="numpy" />
			<input>
				<port id="0" precision="FP16">
					<dim>1280</dim>
					<dim>1280</dim>
				</port>
				<port id="1" precision="FP16">
					<dim>1280</dim>
					<dim>1</dim>
				</port>
			</input>
			<output>
				<port id="2" precision="FP16">
					<dim>1280</dim>
					<dim>1280</dim>
				</port>
			</output>
		</layer>
		<layer id="157" name="self.layers.1.self_attn.k_proj.weight/scale" type="Const" version="opset1">
			<data element_type="f16" shape="1280, 1" offset="36158832" size="2560" />
			<output>
				<port id="0" precision="FP16">
					<dim>1280</dim>
					<dim>1</dim>
				</port>
			</output>
		</layer>
		<layer id="158" name="self.layers.1.self_attn.k_proj.weight/fq_weights_1" type="Multiply" version="opset1">
			<data auto_broadcast="numpy" />
			<input>
				<port id="0" precision="FP16">
					<dim>1280</dim>
					<dim>1280</dim>
				</port>
				<port id="1" precision="FP16">
					<dim>1280</dim>
					<dim>1</dim>
				</port>
			</input>
			<output>
				<port id="2" precision="FP16">
					<dim>1280</dim>
					<dim>1280</dim>
				</port>
			</output>
		</layer>
		<layer id="159" name="self.layers.1.self_attn.k_proj.weight/fq_weights_1/convert" type="Convert" version="opset1">
			<data destination_type="f32" />
			<input>
				<port id="0" precision="FP16">
					<dim>1280</dim>
					<dim>1280</dim>
				</port>
			</input>
			<output>
				<port id="1" precision="FP32">
					<dim>1280</dim>
					<dim>1280</dim>
				</port>
			</output>
		</layer>
		<layer id="160" name="__module.layers.1.self_attn.k_proj/aten::linear/MatMul" type="MatMul" version="opset1">
			<data transpose_a="false" transpose_b="true" />
			<input>
				<port id="0" precision="FP32">
					<dim>-1</dim>
					<dim>1500</dim>
					<dim>1280</dim>
				</port>
				<port id="1" precision="FP32">
					<dim>1280</dim>
					<dim>1280</dim>
				</port>
			</input>
			<output>
				<port id="2" precision="FP32" names="274">
					<dim>-1</dim>
					<dim>1500</dim>
					<dim>1280</dim>
				</port>
			</output>
		</layer>
		<layer id="161" name="Constant_21079" type="Const" version="opset1">
			<data element_type="i64" shape="4" offset="14762272" size="32" />
			<output>
				<port id="0" precision="I64">
					<dim>4</dim>
				</port>
			</output>
		</layer>
		<layer id="162" name="__module.layers.1.self_attn/aten::view/Reshape_1" type="Reshape" version="opset1">
			<data special_zero="true" />
			<input>
				<port id="0" precision="FP32">
					<dim>-1</dim>
					<dim>1500</dim>
					<dim>1280</dim>
				</port>
				<port id="1" precision="I64">
					<dim>4</dim>
				</port>
			</input>
			<output>
				<port id="2" precision="FP32" names="276,key_states.3">
					<dim>-1</dim>
					<dim>1500</dim>
					<dim>20</dim>
					<dim>64</dim>
				</port>
			</output>
		</layer>
		<layer id="163" name="__module.layers.1.self_attn/aten::transpose/Constant_1" type="Const" version="opset1">
			<data element_type="i32" shape="4" offset="14762304" size="16" />
			<output>
				<port id="0" precision="I32">
					<dim>4</dim>
				</port>
			</output>
		</layer>
		<layer id="164" name="__module.layers.1.self_attn/aten::transpose/Transpose_1" type="Transpose" version="opset1">
			<input>
				<port id="0" precision="FP32">
					<dim>-1</dim>
					<dim>1500</dim>
					<dim>20</dim>
					<dim>64</dim>
				</port>
				<port id="1" precision="I32">
					<dim>4</dim>
				</port>
			</input>
			<output>
				<port id="2" precision="FP32" names="282">
					<dim>-1</dim>
					<dim>20</dim>
					<dim>1500</dim>
					<dim>64</dim>
				</port>
			</output>
		</layer>
		<layer id="165" name="self.layers.1.self_attn.v_proj.weight" type="Const" version="opset1">
			<data element_type="u8" shape="1280, 1280" offset="36161392" size="1638400" />
			<output>
				<port id="0" precision="U8">
					<dim>1280</dim>
					<dim>1280</dim>
				</port>
			</output>
		</layer>
		<layer id="166" name="Convert_385235" type="Convert" version="opset1">
			<data destination_type="f16" />
			<input>
				<port id="0" precision="U8">
					<dim>1280</dim>
					<dim>1280</dim>
				</port>
			</input>
			<output>
				<port id="1" precision="FP16">
					<dim>1280</dim>
					<dim>1280</dim>
				</port>
			</output>
		</layer>
		<layer id="167" name="self.layers.1.self_attn.v_proj.weight/zero_point" type="Const" version="opset1">
			<data element_type="u8" shape="1280, 1" offset="37799792" size="1280" />
			<output>
				<port id="0" precision="U8">
					<dim>1280</dim>
					<dim>1</dim>
				</port>
			</output>
		</layer>
		<layer id="168" name="Convert_385238" type="Convert" version="opset1">
			<data destination_type="f16" />
			<input>
				<port id="0" precision="U8">
					<dim>1280</dim>
					<dim>1</dim>
				</port>
			</input>
			<output>
				<port id="1" precision="FP16">
					<dim>1280</dim>
					<dim>1</dim>
				</port>
			</output>
		</layer>
		<layer id="169" name="self.layers.1.self_attn.v_proj.weight/zero_point/subtract" type="Subtract" version="opset1">
			<data auto_broadcast="numpy" />
			<input>
				<port id="0" precision="FP16">
					<dim>1280</dim>
					<dim>1280</dim>
				</port>
				<port id="1" precision="FP16">
					<dim>1280</dim>
					<dim>1</dim>
				</port>
			</input>
			<output>
				<port id="2" precision="FP16">
					<dim>1280</dim>
					<dim>1280</dim>
				</port>
			</output>
		</layer>
		<layer id="170" name="self.layers.1.self_attn.v_proj.weight/scale" type="Const" version="opset1">
			<data element_type="f16" shape="1280, 1" offset="37801072" size="2560" />
			<output>
				<port id="0" precision="FP16">
					<dim>1280</dim>
					<dim>1</dim>
				</port>
			</output>
		</layer>
		<layer id="171" name="self.layers.1.self_attn.v_proj.weight/fq_weights_1" type="Multiply" version="opset1">
			<data auto_broadcast="numpy" />
			<input>
				<port id="0" precision="FP16">
					<dim>1280</dim>
					<dim>1280</dim>
				</port>
				<port id="1" precision="FP16">
					<dim>1280</dim>
					<dim>1</dim>
				</port>
			</input>
			<output>
				<port id="2" precision="FP16">
					<dim>1280</dim>
					<dim>1280</dim>
				</port>
			</output>
		</layer>
		<layer id="172" name="self.layers.1.self_attn.v_proj.weight/fq_weights_1/convert" type="Convert" version="opset1">
			<data destination_type="f32" />
			<input>
				<port id="0" precision="FP16">
					<dim>1280</dim>
					<dim>1280</dim>
				</port>
			</input>
			<output>
				<port id="1" precision="FP32">
					<dim>1280</dim>
					<dim>1280</dim>
				</port>
			</output>
		</layer>
		<layer id="173" name="__module.layers.1.self_attn.v_proj/aten::linear/MatMul" type="MatMul" version="opset1">
			<data transpose_a="false" transpose_b="true" />
			<input>
				<port id="0" precision="FP32">
					<dim>-1</dim>
					<dim>1500</dim>
					<dim>1280</dim>
				</port>
				<port id="1" precision="FP32">
					<dim>1280</dim>
					<dim>1280</dim>
				</port>
			</input>
			<output>
				<port id="2" precision="FP32">
					<dim>-1</dim>
					<dim>1500</dim>
					<dim>1280</dim>
				</port>
			</output>
		</layer>
		<layer id="174" name="Constant_20186" type="Const" version="opset1">
			<data element_type="f32" shape="1, 1, 1280" offset="37803632" size="5120" />
			<output>
				<port id="0" precision="FP32">
					<dim>1</dim>
					<dim>1</dim>
					<dim>1280</dim>
				</port>
			</output>
		</layer>
		<layer id="175" name="__module.layers.1.self_attn.v_proj/aten::linear/Add" type="Add" version="opset1">
			<data auto_broadcast="numpy" />
			<input>
				<port id="0" precision="FP32">
					<dim>-1</dim>
					<dim>1500</dim>
					<dim>1280</dim>
				</port>
				<port id="1" precision="FP32">
					<dim>1</dim>
					<dim>1</dim>
					<dim>1280</dim>
				</port>
			</input>
			<output>
				<port id="2" precision="FP32" names="279">
					<dim>-1</dim>
					<dim>1500</dim>
					<dim>1280</dim>
				</port>
			</output>
		</layer>
		<layer id="176" name="Constant_21080" type="Const" version="opset1">
			<data element_type="i64" shape="4" offset="14762272" size="32" />
			<output>
				<port id="0" precision="I64">
					<dim>4</dim>
				</port>
			</output>
		</layer>
		<layer id="177" name="__module.layers.1.self_attn/aten::view/Reshape_2" type="Reshape" version="opset1">
			<data special_zero="true" />
			<input>
				<port id="0" precision="FP32">
					<dim>-1</dim>
					<dim>1500</dim>
					<dim>1280</dim>
				</port>
				<port id="1" precision="I64">
					<dim>4</dim>
				</port>
			</input>
			<output>
				<port id="2" precision="FP32" names="281,value_states.3">
					<dim>-1</dim>
					<dim>1500</dim>
					<dim>20</dim>
					<dim>64</dim>
				</port>
			</output>
		</layer>
		<layer id="178" name="__module.layers.1.self_attn/aten::transpose/Constant_2" type="Const" version="opset1">
			<data element_type="i32" shape="4" offset="14762304" size="16" />
			<output>
				<port id="0" precision="I32">
					<dim>4</dim>
				</port>
			</output>
		</layer>
		<layer id="179" name="__module.layers.1.self_attn/aten::transpose/Transpose_2" type="Transpose" version="opset1">
			<input>
				<port id="0" precision="FP32">
					<dim>-1</dim>
					<dim>1500</dim>
					<dim>20</dim>
					<dim>64</dim>
				</port>
				<port id="1" precision="I32">
					<dim>4</dim>
				</port>
			</input>
			<output>
				<port id="2" precision="FP32" names="284">
					<dim>-1</dim>
					<dim>20</dim>
					<dim>1500</dim>
					<dim>64</dim>
				</port>
			</output>
		</layer>
		<layer id="180" name="__module.layers.1.self_attn/aten::scaled_dot_product_attention/ConvertLike" type="Const" version="opset1">
			<data element_type="f32" shape="" offset="18051920" size="4" />
			<output>
				<port id="0" precision="FP32" />
			</output>
		</layer>
		<layer id="181" name="__module.layers.1.self_attn/aten::scaled_dot_product_attention/ConvertLike_1" type="Const" version="opset1">
			<data element_type="f32" shape="" offset="18051924" size="4" />
			<output>
				<port id="0" precision="FP32" />
			</output>
		</layer>
		<layer id="182" name="__module.layers.1.self_attn/aten::scaled_dot_product_attention/ScaledDotProductAttention" type="ScaledDotProductAttention" version="opset13">
			<data causal="false" />
			<input>
				<port id="0" precision="FP32">
					<dim>-1</dim>
					<dim>20</dim>
					<dim>1500</dim>
					<dim>64</dim>
				</port>
				<port id="1" precision="FP32">
					<dim>-1</dim>
					<dim>20</dim>
					<dim>1500</dim>
					<dim>64</dim>
				</port>
				<port id="2" precision="FP32">
					<dim>-1</dim>
					<dim>20</dim>
					<dim>1500</dim>
					<dim>64</dim>
				</port>
				<port id="3" precision="FP32" />
				<port id="4" precision="FP32" />
			</input>
			<output>
				<port id="5" precision="FP32" names="289,attn_output.5">
					<dim>-1</dim>
					<dim>20</dim>
					<dim>1500</dim>
					<dim>64</dim>
				</port>
			</output>
		</layer>
		<layer id="183" name="__module.layers.1.self_attn/aten::transpose/Constant_3" type="Const" version="opset1">
			<data element_type="i32" shape="4" offset="14762304" size="16" />
			<output>
				<port id="0" precision="I32">
					<dim>4</dim>
				</port>
			</output>
		</layer>
		<layer id="184" name="__module.layers.1.self_attn/aten::transpose/Transpose_3" type="Transpose" version="opset1">
			<input>
				<port id="0" precision="FP32">
					<dim>-1</dim>
					<dim>20</dim>
					<dim>1500</dim>
					<dim>64</dim>
				</port>
				<port id="1" precision="I32">
					<dim>4</dim>
				</port>
			</input>
			<output>
				<port id="2" precision="FP32" names="290">
					<dim>-1</dim>
					<dim>1500</dim>
					<dim>20</dim>
					<dim>64</dim>
				</port>
			</output>
		</layer>
		<layer id="185" name="Constant_21081" type="Const" version="opset1">
			<data element_type="i64" shape="3" offset="18051928" size="24" />
			<output>
				<port id="0" precision="I64">
					<dim>3</dim>
				</port>
			</output>
		</layer>
		<layer id="186" name="__module.layers.1.self_attn/aten::reshape/Reshape" type="Reshape" version="opset1">
			<data special_zero="true" />
			<input>
				<port id="0" precision="FP32">
					<dim>-1</dim>
					<dim>1500</dim>
					<dim>20</dim>
					<dim>64</dim>
				</port>
				<port id="1" precision="I64">
					<dim>3</dim>
				</port>
			</input>
			<output>
				<port id="2" precision="FP32" names="293">
					<dim>-1</dim>
					<dim>1500</dim>
					<dim>1280</dim>
				</port>
			</output>
		</layer>
		<layer id="187" name="self.layers.1.self_attn.out_proj.weight" type="Const" version="opset1">
			<data element_type="u8" shape="1280, 1280" offset="37808752" size="1638400" />
			<output>
				<port id="0" precision="U8">
					<dim>1280</dim>
					<dim>1280</dim>
				</port>
			</output>
		</layer>
		<layer id="188" name="Convert_399569" type="Convert" version="opset1">
			<data destination_type="f16" />
			<input>
				<port id="0" precision="U8">
					<dim>1280</dim>
					<dim>1280</dim>
				</port>
			</input>
			<output>
				<port id="1" precision="FP16">
					<dim>1280</dim>
					<dim>1280</dim>
				</port>
			</output>
		</layer>
		<layer id="189" name="self.layers.1.self_attn.out_proj.weight/zero_point" type="Const" version="opset1">
			<data element_type="u8" shape="1280, 1" offset="39447152" size="1280" />
			<output>
				<port id="0" precision="U8">
					<dim>1280</dim>
					<dim>1</dim>
				</port>
			</output>
		</layer>
		<layer id="190" name="Convert_399572" type="Convert" version="opset1">
			<data destination_type="f16" />
			<input>
				<port id="0" precision="U8">
					<dim>1280</dim>
					<dim>1</dim>
				</port>
			</input>
			<output>
				<port id="1" precision="FP16">
					<dim>1280</dim>
					<dim>1</dim>
				</port>
			</output>
		</layer>
		<layer id="191" name="self.layers.1.self_attn.out_proj.weight/zero_point/subtract" type="Subtract" version="opset1">
			<data auto_broadcast="numpy" />
			<input>
				<port id="0" precision="FP16">
					<dim>1280</dim>
					<dim>1280</dim>
				</port>
				<port id="1" precision="FP16">
					<dim>1280</dim>
					<dim>1</dim>
				</port>
			</input>
			<output>
				<port id="2" precision="FP16">
					<dim>1280</dim>
					<dim>1280</dim>
				</port>
			</output>
		</layer>
		<layer id="192" name="self.layers.1.self_attn.out_proj.weight/scale" type="Const" version="opset1">
			<data element_type="f16" shape="1280, 1" offset="39448432" size="2560" />
			<output>
				<port id="0" precision="FP16">
					<dim>1280</dim>
					<dim>1</dim>
				</port>
			</output>
		</layer>
		<layer id="193" name="self.layers.1.self_attn.out_proj.weight/fq_weights_1" type="Multiply" version="opset1">
			<data auto_broadcast="numpy" />
			<input>
				<port id="0" precision="FP16">
					<dim>1280</dim>
					<dim>1280</dim>
				</port>
				<port id="1" precision="FP16">
					<dim>1280</dim>
					<dim>1</dim>
				</port>
			</input>
			<output>
				<port id="2" precision="FP16">
					<dim>1280</dim>
					<dim>1280</dim>
				</port>
			</output>
		</layer>
		<layer id="194" name="self.layers.1.self_attn.out_proj.weight/fq_weights_1/convert" type="Convert" version="opset1">
			<data destination_type="f32" />
			<input>
				<port id="0" precision="FP16">
					<dim>1280</dim>
					<dim>1280</dim>
				</port>
			</input>
			<output>
				<port id="1" precision="FP32">
					<dim>1280</dim>
					<dim>1280</dim>
				</port>
			</output>
		</layer>
		<layer id="195" name="__module.layers.1.self_attn.out_proj/aten::linear/MatMul" type="MatMul" version="opset1">
			<data transpose_a="false" transpose_b="true" />
			<input>
				<port id="0" precision="FP32">
					<dim>-1</dim>
					<dim>1500</dim>
					<dim>1280</dim>
				</port>
				<port id="1" precision="FP32">
					<dim>1280</dim>
					<dim>1280</dim>
				</port>
			</input>
			<output>
				<port id="2" precision="FP32">
					<dim>-1</dim>
					<dim>1500</dim>
					<dim>1280</dim>
				</port>
			</output>
		</layer>
		<layer id="196" name="Constant_20187" type="Const" version="opset1">
			<data element_type="f32" shape="1, 1, 1280" offset="39450992" size="5120" />
			<output>
				<port id="0" precision="FP32">
					<dim>1</dim>
					<dim>1</dim>
					<dim>1280</dim>
				</port>
			</output>
		</layer>
		<layer id="197" name="__module.layers.1.self_attn.out_proj/aten::linear/Add" type="Add" version="opset1">
			<data auto_broadcast="numpy" />
			<input>
				<port id="0" precision="FP32">
					<dim>-1</dim>
					<dim>1500</dim>
					<dim>1280</dim>
				</port>
				<port id="1" precision="FP32">
					<dim>1</dim>
					<dim>1</dim>
					<dim>1280</dim>
				</port>
			</input>
			<output>
				<port id="2" precision="FP32" names="297,input.29">
					<dim>-1</dim>
					<dim>1500</dim>
					<dim>1280</dim>
				</port>
			</output>
		</layer>
		<layer id="198" name="__module.layers.1/aten::add/Add" type="Add" version="opset1">
			<data auto_broadcast="numpy" />
			<input>
				<port id="0" precision="FP32">
					<dim>-1</dim>
					<dim>1500</dim>
					<dim>1280</dim>
				</port>
				<port id="1" precision="FP32">
					<dim>-1</dim>
					<dim>1500</dim>
					<dim>1280</dim>
				</port>
			</input>
			<output>
				<port id="2" precision="FP32" names="299,input.31">
					<dim>-1</dim>
					<dim>1500</dim>
					<dim>1280</dim>
				</port>
			</output>
		</layer>
		<layer id="199" name="__module.layers.1.final_layer_norm/aten::layer_norm/Multiply" type="Const" version="opset1">
			<data element_type="i32" shape="1" offset="13104664" size="4" />
			<output>
				<port id="0" precision="I32">
					<dim>1</dim>
				</port>
			</output>
		</layer>
		<layer id="200" name="__module.layers.1.final_layer_norm/aten::layer_norm/MVN" type="MVN" version="opset6">
			<data eps="9.9999997473787516e-06" normalize_variance="true" eps_mode="INSIDE_SQRT" />
			<input>
				<port id="0" precision="FP32">
					<dim>-1</dim>
					<dim>1500</dim>
					<dim>1280</dim>
				</port>
				<port id="1" precision="I32">
					<dim>1</dim>
				</port>
			</input>
			<output>
				<port id="2" precision="FP32">
					<dim>-1</dim>
					<dim>1500</dim>
					<dim>1280</dim>
				</port>
			</output>
		</layer>
		<layer id="201" name="Constant_20188" type="Const" version="opset1">
			<data element_type="f32" shape="1, 1, 1280" offset="39456112" size="5120" />
			<output>
				<port id="0" precision="FP32">
					<dim>1</dim>
					<dim>1</dim>
					<dim>1280</dim>
				</port>
			</output>
		</layer>
		<layer id="202" name="__module.layers.1.final_layer_norm/aten::layer_norm/Multiply_1" type="Multiply" version="opset1">
			<data auto_broadcast="numpy" />
			<input>
				<port id="0" precision="FP32">
					<dim>-1</dim>
					<dim>1500</dim>
					<dim>1280</dim>
				</port>
				<port id="1" precision="FP32">
					<dim>1</dim>
					<dim>1</dim>
					<dim>1280</dim>
				</port>
			</input>
			<output>
				<port id="2" precision="FP32">
					<dim>-1</dim>
					<dim>1500</dim>
					<dim>1280</dim>
				</port>
			</output>
		</layer>
		<layer id="203" name="Constant_20189" type="Const" version="opset1">
			<data element_type="f32" shape="1, 1, 1280" offset="39461232" size="5120" />
			<output>
				<port id="0" precision="FP32">
					<dim>1</dim>
					<dim>1</dim>
					<dim>1280</dim>
				</port>
			</output>
		</layer>
		<layer id="204" name="__module.layers.1.final_layer_norm/aten::layer_norm/Add" type="Add" version="opset1">
			<data auto_broadcast="numpy" />
			<input>
				<port id="0" precision="FP32">
					<dim>-1</dim>
					<dim>1500</dim>
					<dim>1280</dim>
				</port>
				<port id="1" precision="FP32">
					<dim>1</dim>
					<dim>1</dim>
					<dim>1280</dim>
				</port>
			</input>
			<output>
				<port id="2" precision="FP32" names="303,input.33">
					<dim>-1</dim>
					<dim>1500</dim>
					<dim>1280</dim>
				</port>
			</output>
		</layer>
		<layer id="205" name="self.layers.1.fc1.weight" type="Const" version="opset1">
			<data element_type="u8" shape="5120, 1280" offset="39466352" size="6553600" />
			<output>
				<port id="0" precision="U8">
					<dim>5120</dim>
					<dim>1280</dim>
				</port>
			</output>
		</layer>
		<layer id="206" name="Convert_65109" type="Convert" version="opset1">
			<data destination_type="f16" />
			<input>
				<port id="0" precision="U8">
					<dim>5120</dim>
					<dim>1280</dim>
				</port>
			</input>
			<output>
				<port id="1" precision="FP16">
					<dim>5120</dim>
					<dim>1280</dim>
				</port>
			</output>
		</layer>
		<layer id="207" name="self.layers.1.fc1.weight/zero_point" type="Const" version="opset1">
			<data element_type="u8" shape="5120, 1" offset="46019952" size="5120" />
			<output>
				<port id="0" precision="U8">
					<dim>5120</dim>
					<dim>1</dim>
				</port>
			</output>
		</layer>
		<layer id="208" name="Convert_65112" type="Convert" version="opset1">
			<data destination_type="f16" />
			<input>
				<port id="0" precision="U8">
					<dim>5120</dim>
					<dim>1</dim>
				</port>
			</input>
			<output>
				<port id="1" precision="FP16">
					<dim>5120</dim>
					<dim>1</dim>
				</port>
			</output>
		</layer>
		<layer id="209" name="self.layers.1.fc1.weight/zero_point/subtract" type="Subtract" version="opset1">
			<data auto_broadcast="numpy" />
			<input>
				<port id="0" precision="FP16">
					<dim>5120</dim>
					<dim>1280</dim>
				</port>
				<port id="1" precision="FP16">
					<dim>5120</dim>
					<dim>1</dim>
				</port>
			</input>
			<output>
				<port id="2" precision="FP16">
					<dim>5120</dim>
					<dim>1280</dim>
				</port>
			</output>
		</layer>
		<layer id="210" name="self.layers.1.fc1.weight/scale" type="Const" version="opset1">
			<data element_type="f16" shape="5120, 1" offset="46025072" size="10240" />
			<output>
				<port id="0" precision="FP16">
					<dim>5120</dim>
					<dim>1</dim>
				</port>
			</output>
		</layer>
		<layer id="211" name="self.layers.1.fc1.weight/fq_weights_1" type="Multiply" version="opset1">
			<data auto_broadcast="numpy" />
			<input>
				<port id="0" precision="FP16">
					<dim>5120</dim>
					<dim>1280</dim>
				</port>
				<port id="1" precision="FP16">
					<dim>5120</dim>
					<dim>1</dim>
				</port>
			</input>
			<output>
				<port id="2" precision="FP16">
					<dim>5120</dim>
					<dim>1280</dim>
				</port>
			</output>
		</layer>
		<layer id="212" name="self.layers.1.fc1.weight/fq_weights_1/convert" type="Convert" version="opset1">
			<data destination_type="f32" />
			<input>
				<port id="0" precision="FP16">
					<dim>5120</dim>
					<dim>1280</dim>
				</port>
			</input>
			<output>
				<port id="1" precision="FP32">
					<dim>5120</dim>
					<dim>1280</dim>
				</port>
			</output>
		</layer>
		<layer id="213" name="__module.layers.1.fc1/aten::linear/MatMul" type="MatMul" version="opset1">
			<data transpose_a="false" transpose_b="true" />
			<input>
				<port id="0" precision="FP32">
					<dim>-1</dim>
					<dim>1500</dim>
					<dim>1280</dim>
				</port>
				<port id="1" precision="FP32">
					<dim>5120</dim>
					<dim>1280</dim>
				</port>
			</input>
			<output>
				<port id="2" precision="FP32">
					<dim>-1</dim>
					<dim>1500</dim>
					<dim>5120</dim>
				</port>
			</output>
		</layer>
		<layer id="214" name="Constant_20190" type="Const" version="opset1">
			<data element_type="f32" shape="1, 1, 5120" offset="46035312" size="20480" />
			<output>
				<port id="0" precision="FP32">
					<dim>1</dim>
					<dim>1</dim>
					<dim>5120</dim>
				</port>
			</output>
		</layer>
		<layer id="215" name="__module.layers.1.fc1/aten::linear/Add" type="Add" version="opset1">
			<data auto_broadcast="numpy" />
			<input>
				<port id="0" precision="FP32">
					<dim>-1</dim>
					<dim>1500</dim>
					<dim>5120</dim>
				</port>
				<port id="1" precision="FP32">
					<dim>1</dim>
					<dim>1</dim>
					<dim>5120</dim>
				</port>
			</input>
			<output>
				<port id="2" precision="FP32" names="306,input.35">
					<dim>-1</dim>
					<dim>1500</dim>
					<dim>5120</dim>
				</port>
			</output>
		</layer>
		<layer id="216" name="__module.layers.1.activation_fn/aten::gelu/Gelu" type="Gelu" version="opset7">
			<data approximation_mode="ERF" />
			<input>
				<port id="0" precision="FP32">
					<dim>-1</dim>
					<dim>1500</dim>
					<dim>5120</dim>
				</port>
			</input>
			<output>
				<port id="1" precision="FP32" names="307,input.37">
					<dim>-1</dim>
					<dim>1500</dim>
					<dim>5120</dim>
				</port>
			</output>
		</layer>
		<layer id="217" name="self.layers.1.fc2.weight" type="Const" version="opset1">
			<data element_type="u8" shape="1280, 5120" offset="46055792" size="6553600" />
			<output>
				<port id="0" precision="U8">
					<dim>1280</dim>
					<dim>5120</dim>
				</port>
			</output>
		</layer>
		<layer id="218" name="Convert_69887" type="Convert" version="opset1">
			<data destination_type="f16" />
			<input>
				<port id="0" precision="U8">
					<dim>1280</dim>
					<dim>5120</dim>
				</port>
			</input>
			<output>
				<port id="1" precision="FP16">
					<dim>1280</dim>
					<dim>5120</dim>
				</port>
			</output>
		</layer>
		<layer id="219" name="self.layers.1.fc2.weight/zero_point" type="Const" version="opset1">
			<data element_type="u8" shape="1280, 1" offset="52609392" size="1280" />
			<output>
				<port id="0" precision="U8">
					<dim>1280</dim>
					<dim>1</dim>
				</port>
			</output>
		</layer>
		<layer id="220" name="Convert_69890" type="Convert" version="opset1">
			<data destination_type="f16" />
			<input>
				<port id="0" precision="U8">
					<dim>1280</dim>
					<dim>1</dim>
				</port>
			</input>
			<output>
				<port id="1" precision="FP16">
					<dim>1280</dim>
					<dim>1</dim>
				</port>
			</output>
		</layer>
		<layer id="221" name="self.layers.1.fc2.weight/zero_point/subtract" type="Subtract" version="opset1">
			<data auto_broadcast="numpy" />
			<input>
				<port id="0" precision="FP16">
					<dim>1280</dim>
					<dim>5120</dim>
				</port>
				<port id="1" precision="FP16">
					<dim>1280</dim>
					<dim>1</dim>
				</port>
			</input>
			<output>
				<port id="2" precision="FP16">
					<dim>1280</dim>
					<dim>5120</dim>
				</port>
			</output>
		</layer>
		<layer id="222" name="self.layers.1.fc2.weight/scale" type="Const" version="opset1">
			<data element_type="f16" shape="1280, 1" offset="52610672" size="2560" />
			<output>
				<port id="0" precision="FP16">
					<dim>1280</dim>
					<dim>1</dim>
				</port>
			</output>
		</layer>
		<layer id="223" name="self.layers.1.fc2.weight/fq_weights_1" type="Multiply" version="opset1">
			<data auto_broadcast="numpy" />
			<input>
				<port id="0" precision="FP16">
					<dim>1280</dim>
					<dim>5120</dim>
				</port>
				<port id="1" precision="FP16">
					<dim>1280</dim>
					<dim>1</dim>
				</port>
			</input>
			<output>
				<port id="2" precision="FP16">
					<dim>1280</dim>
					<dim>5120</dim>
				</port>
			</output>
		</layer>
		<layer id="224" name="self.layers.1.fc2.weight/fq_weights_1/convert" type="Convert" version="opset1">
			<data destination_type="f32" />
			<input>
				<port id="0" precision="FP16">
					<dim>1280</dim>
					<dim>5120</dim>
				</port>
			</input>
			<output>
				<port id="1" precision="FP32">
					<dim>1280</dim>
					<dim>5120</dim>
				</port>
			</output>
		</layer>
		<layer id="225" name="__module.layers.1.fc2/aten::linear/MatMul" type="MatMul" version="opset1">
			<data transpose_a="false" transpose_b="true" />
			<input>
				<port id="0" precision="FP32">
					<dim>-1</dim>
					<dim>1500</dim>
					<dim>5120</dim>
				</port>
				<port id="1" precision="FP32">
					<dim>1280</dim>
					<dim>5120</dim>
				</port>
			</input>
			<output>
				<port id="2" precision="FP32">
					<dim>-1</dim>
					<dim>1500</dim>
					<dim>1280</dim>
				</port>
			</output>
		</layer>
		<layer id="226" name="Constant_20191" type="Const" version="opset1">
			<data element_type="f32" shape="1, 1, 1280" offset="52613232" size="5120" />
			<output>
				<port id="0" precision="FP32">
					<dim>1</dim>
					<dim>1</dim>
					<dim>1280</dim>
				</port>
			</output>
		</layer>
		<layer id="227" name="__module.layers.1.fc2/aten::linear/Add" type="Add" version="opset1">
			<data auto_broadcast="numpy" />
			<input>
				<port id="0" precision="FP32">
					<dim>-1</dim>
					<dim>1500</dim>
					<dim>1280</dim>
				</port>
				<port id="1" precision="FP32">
					<dim>1</dim>
					<dim>1</dim>
					<dim>1280</dim>
				</port>
			</input>
			<output>
				<port id="2" precision="FP32" names="311,input.41">
					<dim>-1</dim>
					<dim>1500</dim>
					<dim>1280</dim>
				</port>
			</output>
		</layer>
		<layer id="228" name="__module.layers.1/aten::add/Add_1" type="Add" version="opset1">
			<data auto_broadcast="numpy" />
			<input>
				<port id="0" precision="FP32">
					<dim>-1</dim>
					<dim>1500</dim>
					<dim>1280</dim>
				</port>
				<port id="1" precision="FP32">
					<dim>-1</dim>
					<dim>1500</dim>
					<dim>1280</dim>
				</port>
			</input>
			<output>
				<port id="2" precision="FP32" names="313,input.43">
					<dim>-1</dim>
					<dim>1500</dim>
					<dim>1280</dim>
				</port>
			</output>
		</layer>
		<layer id="229" name="__module.layers.2.self_attn_layer_norm/aten::layer_norm/Multiply" type="Const" version="opset1">
			<data element_type="i32" shape="1" offset="13104664" size="4" />
			<output>
				<port id="0" precision="I32">
					<dim>1</dim>
				</port>
			</output>
		</layer>
		<layer id="230" name="__module.layers.2.self_attn_layer_norm/aten::layer_norm/MVN" type="MVN" version="opset6">
			<data eps="9.9999997473787516e-06" normalize_variance="true" eps_mode="INSIDE_SQRT" />
			<input>
				<port id="0" precision="FP32">
					<dim>-1</dim>
					<dim>1500</dim>
					<dim>1280</dim>
				</port>
				<port id="1" precision="I32">
					<dim>1</dim>
				</port>
			</input>
			<output>
				<port id="2" precision="FP32">
					<dim>-1</dim>
					<dim>1500</dim>
					<dim>1280</dim>
				</port>
			</output>
		</layer>
		<layer id="231" name="Constant_20192" type="Const" version="opset1">
			<data element_type="f32" shape="1, 1, 1280" offset="52618352" size="5120" />
			<output>
				<port id="0" precision="FP32">
					<dim>1</dim>
					<dim>1</dim>
					<dim>1280</dim>
				</port>
			</output>
		</layer>
		<layer id="232" name="__module.layers.2.self_attn_layer_norm/aten::layer_norm/Multiply_1" type="Multiply" version="opset1">
			<data auto_broadcast="numpy" />
			<input>
				<port id="0" precision="FP32">
					<dim>-1</dim>
					<dim>1500</dim>
					<dim>1280</dim>
				</port>
				<port id="1" precision="FP32">
					<dim>1</dim>
					<dim>1</dim>
					<dim>1280</dim>
				</port>
			</input>
			<output>
				<port id="2" precision="FP32">
					<dim>-1</dim>
					<dim>1500</dim>
					<dim>1280</dim>
				</port>
			</output>
		</layer>
		<layer id="233" name="Constant_20193" type="Const" version="opset1">
			<data element_type="f32" shape="1, 1, 1280" offset="52623472" size="5120" />
			<output>
				<port id="0" precision="FP32">
					<dim>1</dim>
					<dim>1</dim>
					<dim>1280</dim>
				</port>
			</output>
		</layer>
		<layer id="234" name="__module.layers.2.self_attn_layer_norm/aten::layer_norm/Add" type="Add" version="opset1">
			<data auto_broadcast="numpy" />
			<input>
				<port id="0" precision="FP32">
					<dim>-1</dim>
					<dim>1500</dim>
					<dim>1280</dim>
				</port>
				<port id="1" precision="FP32">
					<dim>1</dim>
					<dim>1</dim>
					<dim>1280</dim>
				</port>
			</input>
			<output>
				<port id="2" precision="FP32" names="338,hidden_states.13">
					<dim>-1</dim>
					<dim>1500</dim>
					<dim>1280</dim>
				</port>
			</output>
		</layer>
		<layer id="235" name="self.layers.2.self_attn.q_proj.weight" type="Const" version="opset1">
			<data element_type="u8" shape="1280, 1280" offset="52628592" size="1638400" />
			<output>
				<port id="0" precision="U8">
					<dim>1280</dim>
					<dim>1280</dim>
				</port>
			</output>
		</layer>
		<layer id="236" name="Convert_413903" type="Convert" version="opset1">
			<data destination_type="f16" />
			<input>
				<port id="0" precision="U8">
					<dim>1280</dim>
					<dim>1280</dim>
				</port>
			</input>
			<output>
				<port id="1" precision="FP16">
					<dim>1280</dim>
					<dim>1280</dim>
				</port>
			</output>
		</layer>
		<layer id="237" name="self.layers.2.self_attn.q_proj.weight/zero_point" type="Const" version="opset1">
			<data element_type="u8" shape="1280, 1" offset="54266992" size="1280" />
			<output>
				<port id="0" precision="U8">
					<dim>1280</dim>
					<dim>1</dim>
				</port>
			</output>
		</layer>
		<layer id="238" name="Convert_413906" type="Convert" version="opset1">
			<data destination_type="f16" />
			<input>
				<port id="0" precision="U8">
					<dim>1280</dim>
					<dim>1</dim>
				</port>
			</input>
			<output>
				<port id="1" precision="FP16">
					<dim>1280</dim>
					<dim>1</dim>
				</port>
			</output>
		</layer>
		<layer id="239" name="self.layers.2.self_attn.q_proj.weight/zero_point/subtract" type="Subtract" version="opset1">
			<data auto_broadcast="numpy" />
			<input>
				<port id="0" precision="FP16">
					<dim>1280</dim>
					<dim>1280</dim>
				</port>
				<port id="1" precision="FP16">
					<dim>1280</dim>
					<dim>1</dim>
				</port>
			</input>
			<output>
				<port id="2" precision="FP16">
					<dim>1280</dim>
					<dim>1280</dim>
				</port>
			</output>
		</layer>
		<layer id="240" name="self.layers.2.self_attn.q_proj.weight/scale" type="Const" version="opset1">
			<data element_type="f16" shape="1280, 1" offset="54268272" size="2560" />
			<output>
				<port id="0" precision="FP16">
					<dim>1280</dim>
					<dim>1</dim>
				</port>
			</output>
		</layer>
		<layer id="241" name="self.layers.2.self_attn.q_proj.weight/fq_weights_1" type="Multiply" version="opset1">
			<data auto_broadcast="numpy" />
			<input>
				<port id="0" precision="FP16">
					<dim>1280</dim>
					<dim>1280</dim>
				</port>
				<port id="1" precision="FP16">
					<dim>1280</dim>
					<dim>1</dim>
				</port>
			</input>
			<output>
				<port id="2" precision="FP16">
					<dim>1280</dim>
					<dim>1280</dim>
				</port>
			</output>
		</layer>
		<layer id="242" name="self.layers.2.self_attn.q_proj.weight/fq_weights_1/convert" type="Convert" version="opset1">
			<data destination_type="f32" />
			<input>
				<port id="0" precision="FP16">
					<dim>1280</dim>
					<dim>1280</dim>
				</port>
			</input>
			<output>
				<port id="1" precision="FP32">
					<dim>1280</dim>
					<dim>1280</dim>
				</port>
			</output>
		</layer>
		<layer id="243" name="__module.layers.2.self_attn.q_proj/aten::linear/MatMul" type="MatMul" version="opset1">
			<data transpose_a="false" transpose_b="true" />
			<input>
				<port id="0" precision="FP32">
					<dim>-1</dim>
					<dim>1500</dim>
					<dim>1280</dim>
				</port>
				<port id="1" precision="FP32">
					<dim>1280</dim>
					<dim>1280</dim>
				</port>
			</input>
			<output>
				<port id="2" precision="FP32">
					<dim>-1</dim>
					<dim>1500</dim>
					<dim>1280</dim>
				</port>
			</output>
		</layer>
		<layer id="244" name="Constant_20194" type="Const" version="opset1">
			<data element_type="f32" shape="1, 1, 1" offset="14757148" size="4" />
			<output>
				<port id="0" precision="FP32">
					<dim>1</dim>
					<dim>1</dim>
					<dim>1</dim>
				</port>
			</output>
		</layer>
		<layer id="245" name="Multiply_19723" type="Multiply" version="opset1">
			<data auto_broadcast="numpy" />
			<input>
				<port id="0" precision="FP32">
					<dim>-1</dim>
					<dim>1500</dim>
					<dim>1280</dim>
				</port>
				<port id="1" precision="FP32">
					<dim>1</dim>
					<dim>1</dim>
					<dim>1</dim>
				</port>
			</input>
			<output>
				<port id="2" precision="FP32">
					<dim>-1</dim>
					<dim>1500</dim>
					<dim>1280</dim>
				</port>
			</output>
		</layer>
		<layer id="246" name="Constant_20195" type="Const" version="opset1">
			<data element_type="f32" shape="1, 1, 1280" offset="54270832" size="5120" />
			<output>
				<port id="0" precision="FP32">
					<dim>1</dim>
					<dim>1</dim>
					<dim>1280</dim>
				</port>
			</output>
		</layer>
		<layer id="247" name="__module.layers.2.self_attn/aten::mul/Multiply" type="Add" version="opset1">
			<data auto_broadcast="numpy" />
			<input>
				<port id="0" precision="FP32">
					<dim>-1</dim>
					<dim>1500</dim>
					<dim>1280</dim>
				</port>
				<port id="1" precision="FP32">
					<dim>1</dim>
					<dim>1</dim>
					<dim>1280</dim>
				</port>
			</input>
			<output>
				<port id="2" precision="FP32" names="348,query_states.9">
					<dim>-1</dim>
					<dim>1500</dim>
					<dim>1280</dim>
				</port>
			</output>
		</layer>
		<layer id="248" name="Constant_21082" type="Const" version="opset1">
			<data element_type="i64" shape="4" offset="14762272" size="32" />
			<output>
				<port id="0" precision="I64">
					<dim>4</dim>
				</port>
			</output>
		</layer>
		<layer id="249" name="__module.layers.2.self_attn/aten::view/Reshape" type="Reshape" version="opset1">
			<data special_zero="true" />
			<input>
				<port id="0" precision="FP32">
					<dim>-1</dim>
					<dim>1500</dim>
					<dim>1280</dim>
				</port>
				<port id="1" precision="I64">
					<dim>4</dim>
				</port>
			</input>
			<output>
				<port id="2" precision="FP32" names="350,query_states.11">
					<dim>-1</dim>
					<dim>1500</dim>
					<dim>20</dim>
					<dim>64</dim>
				</port>
			</output>
		</layer>
		<layer id="250" name="__module.layers.2.self_attn/aten::transpose/Constant" type="Const" version="opset1">
			<data element_type="i32" shape="4" offset="14762304" size="16" />
			<output>
				<port id="0" precision="I32">
					<dim>4</dim>
				</port>
			</output>
		</layer>
		<layer id="251" name="__module.layers.2.self_attn/aten::transpose/Transpose" type="Transpose" version="opset1">
			<input>
				<port id="0" precision="FP32">
					<dim>-1</dim>
					<dim>1500</dim>
					<dim>20</dim>
					<dim>64</dim>
				</port>
				<port id="1" precision="I32">
					<dim>4</dim>
				</port>
			</input>
			<output>
				<port id="2" precision="FP32" names="351">
					<dim>-1</dim>
					<dim>20</dim>
					<dim>1500</dim>
					<dim>64</dim>
				</port>
			</output>
		</layer>
		<layer id="252" name="self.layers.2.self_attn.k_proj.weight" type="Const" version="opset1">
			<data element_type="u8" shape="1280, 1280" offset="54275952" size="1638400" />
			<output>
				<port id="0" precision="U8">
					<dim>1280</dim>
					<dim>1280</dim>
				</port>
			</output>
		</layer>
		<layer id="253" name="Convert_409125" type="Convert" version="opset1">
			<data destination_type="f16" />
			<input>
				<port id="0" precision="U8">
					<dim>1280</dim>
					<dim>1280</dim>
				</port>
			</input>
			<output>
				<port id="1" precision="FP16">
					<dim>1280</dim>
					<dim>1280</dim>
				</port>
			</output>
		</layer>
		<layer id="254" name="self.layers.2.self_attn.k_proj.weight/zero_point" type="Const" version="opset1">
			<data element_type="u8" shape="1280, 1" offset="55914352" size="1280" />
			<output>
				<port id="0" precision="U8">
					<dim>1280</dim>
					<dim>1</dim>
				</port>
			</output>
		</layer>
		<layer id="255" name="Convert_409128" type="Convert" version="opset1">
			<data destination_type="f16" />
			<input>
				<port id="0" precision="U8">
					<dim>1280</dim>
					<dim>1</dim>
				</port>
			</input>
			<output>
				<port id="1" precision="FP16">
					<dim>1280</dim>
					<dim>1</dim>
				</port>
			</output>
		</layer>
		<layer id="256" name="self.layers.2.self_attn.k_proj.weight/zero_point/subtract" type="Subtract" version="opset1">
			<data auto_broadcast="numpy" />
			<input>
				<port id="0" precision="FP16">
					<dim>1280</dim>
					<dim>1280</dim>
				</port>
				<port id="1" precision="FP16">
					<dim>1280</dim>
					<dim>1</dim>
				</port>
			</input>
			<output>
				<port id="2" precision="FP16">
					<dim>1280</dim>
					<dim>1280</dim>
				</port>
			</output>
		</layer>
		<layer id="257" name="self.layers.2.self_attn.k_proj.weight/scale" type="Const" version="opset1">
			<data element_type="f16" shape="1280, 1" offset="55915632" size="2560" />
			<output>
				<port id="0" precision="FP16">
					<dim>1280</dim>
					<dim>1</dim>
				</port>
			</output>
		</layer>
		<layer id="258" name="self.layers.2.self_attn.k_proj.weight/fq_weights_1" type="Multiply" version="opset1">
			<data auto_broadcast="numpy" />
			<input>
				<port id="0" precision="FP16">
					<dim>1280</dim>
					<dim>1280</dim>
				</port>
				<port id="1" precision="FP16">
					<dim>1280</dim>
					<dim>1</dim>
				</port>
			</input>
			<output>
				<port id="2" precision="FP16">
					<dim>1280</dim>
					<dim>1280</dim>
				</port>
			</output>
		</layer>
		<layer id="259" name="self.layers.2.self_attn.k_proj.weight/fq_weights_1/convert" type="Convert" version="opset1">
			<data destination_type="f32" />
			<input>
				<port id="0" precision="FP16">
					<dim>1280</dim>
					<dim>1280</dim>
				</port>
			</input>
			<output>
				<port id="1" precision="FP32">
					<dim>1280</dim>
					<dim>1280</dim>
				</port>
			</output>
		</layer>
		<layer id="260" name="__module.layers.2.self_attn.k_proj/aten::linear/MatMul" type="MatMul" version="opset1">
			<data transpose_a="false" transpose_b="true" />
			<input>
				<port id="0" precision="FP32">
					<dim>-1</dim>
					<dim>1500</dim>
					<dim>1280</dim>
				</port>
				<port id="1" precision="FP32">
					<dim>1280</dim>
					<dim>1280</dim>
				</port>
			</input>
			<output>
				<port id="2" precision="FP32" names="354">
					<dim>-1</dim>
					<dim>1500</dim>
					<dim>1280</dim>
				</port>
			</output>
		</layer>
		<layer id="261" name="Constant_21083" type="Const" version="opset1">
			<data element_type="i64" shape="4" offset="14762272" size="32" />
			<output>
				<port id="0" precision="I64">
					<dim>4</dim>
				</port>
			</output>
		</layer>
		<layer id="262" name="__module.layers.2.self_attn/aten::view/Reshape_1" type="Reshape" version="opset1">
			<data special_zero="true" />
			<input>
				<port id="0" precision="FP32">
					<dim>-1</dim>
					<dim>1500</dim>
					<dim>1280</dim>
				</port>
				<port id="1" precision="I64">
					<dim>4</dim>
				</port>
			</input>
			<output>
				<port id="2" precision="FP32" names="356,key_states.5">
					<dim>-1</dim>
					<dim>1500</dim>
					<dim>20</dim>
					<dim>64</dim>
				</port>
			</output>
		</layer>
		<layer id="263" name="__module.layers.2.self_attn/aten::transpose/Constant_1" type="Const" version="opset1">
			<data element_type="i32" shape="4" offset="14762304" size="16" />
			<output>
				<port id="0" precision="I32">
					<dim>4</dim>
				</port>
			</output>
		</layer>
		<layer id="264" name="__module.layers.2.self_attn/aten::transpose/Transpose_1" type="Transpose" version="opset1">
			<input>
				<port id="0" precision="FP32">
					<dim>-1</dim>
					<dim>1500</dim>
					<dim>20</dim>
					<dim>64</dim>
				</port>
				<port id="1" precision="I32">
					<dim>4</dim>
				</port>
			</input>
			<output>
				<port id="2" precision="FP32" names="362">
					<dim>-1</dim>
					<dim>20</dim>
					<dim>1500</dim>
					<dim>64</dim>
				</port>
			</output>
		</layer>
		<layer id="265" name="self.layers.2.self_attn.v_proj.weight" type="Const" version="opset1">
			<data element_type="u8" shape="1280, 1280" offset="55918192" size="1638400" />
			<output>
				<port id="0" precision="U8">
					<dim>1280</dim>
					<dim>1280</dim>
				</port>
			</output>
		</layer>
		<layer id="266" name="Convert_404347" type="Convert" version="opset1">
			<data destination_type="f16" />
			<input>
				<port id="0" precision="U8">
					<dim>1280</dim>
					<dim>1280</dim>
				</port>
			</input>
			<output>
				<port id="1" precision="FP16">
					<dim>1280</dim>
					<dim>1280</dim>
				</port>
			</output>
		</layer>
		<layer id="267" name="self.layers.2.self_attn.v_proj.weight/zero_point" type="Const" version="opset1">
			<data element_type="u8" shape="1280, 1" offset="57556592" size="1280" />
			<output>
				<port id="0" precision="U8">
					<dim>1280</dim>
					<dim>1</dim>
				</port>
			</output>
		</layer>
		<layer id="268" name="Convert_404350" type="Convert" version="opset1">
			<data destination_type="f16" />
			<input>
				<port id="0" precision="U8">
					<dim>1280</dim>
					<dim>1</dim>
				</port>
			</input>
			<output>
				<port id="1" precision="FP16">
					<dim>1280</dim>
					<dim>1</dim>
				</port>
			</output>
		</layer>
		<layer id="269" name="self.layers.2.self_attn.v_proj.weight/zero_point/subtract" type="Subtract" version="opset1">
			<data auto_broadcast="numpy" />
			<input>
				<port id="0" precision="FP16">
					<dim>1280</dim>
					<dim>1280</dim>
				</port>
				<port id="1" precision="FP16">
					<dim>1280</dim>
					<dim>1</dim>
				</port>
			</input>
			<output>
				<port id="2" precision="FP16">
					<dim>1280</dim>
					<dim>1280</dim>
				</port>
			</output>
		</layer>
		<layer id="270" name="self.layers.2.self_attn.v_proj.weight/scale" type="Const" version="opset1">
			<data element_type="f16" shape="1280, 1" offset="57557872" size="2560" />
			<output>
				<port id="0" precision="FP16">
					<dim>1280</dim>
					<dim>1</dim>
				</port>
			</output>
		</layer>
		<layer id="271" name="self.layers.2.self_attn.v_proj.weight/fq_weights_1" type="Multiply" version="opset1">
			<data auto_broadcast="numpy" />
			<input>
				<port id="0" precision="FP16">
					<dim>1280</dim>
					<dim>1280</dim>
				</port>
				<port id="1" precision="FP16">
					<dim>1280</dim>
					<dim>1</dim>
				</port>
			</input>
			<output>
				<port id="2" precision="FP16">
					<dim>1280</dim>
					<dim>1280</dim>
				</port>
			</output>
		</layer>
		<layer id="272" name="self.layers.2.self_attn.v_proj.weight/fq_weights_1/convert" type="Convert" version="opset1">
			<data destination_type="f32" />
			<input>
				<port id="0" precision="FP16">
					<dim>1280</dim>
					<dim>1280</dim>
				</port>
			</input>
			<output>
				<port id="1" precision="FP32">
					<dim>1280</dim>
					<dim>1280</dim>
				</port>
			</output>
		</layer>
		<layer id="273" name="__module.layers.2.self_attn.v_proj/aten::linear/MatMul" type="MatMul" version="opset1">
			<data transpose_a="false" transpose_b="true" />
			<input>
				<port id="0" precision="FP32">
					<dim>-1</dim>
					<dim>1500</dim>
					<dim>1280</dim>
				</port>
				<port id="1" precision="FP32">
					<dim>1280</dim>
					<dim>1280</dim>
				</port>
			</input>
			<output>
				<port id="2" precision="FP32">
					<dim>-1</dim>
					<dim>1500</dim>
					<dim>1280</dim>
				</port>
			</output>
		</layer>
		<layer id="274" name="Constant_20196" type="Const" version="opset1">
			<data element_type="f32" shape="1, 1, 1280" offset="57560432" size="5120" />
			<output>
				<port id="0" precision="FP32">
					<dim>1</dim>
					<dim>1</dim>
					<dim>1280</dim>
				</port>
			</output>
		</layer>
		<layer id="275" name="__module.layers.2.self_attn.v_proj/aten::linear/Add" type="Add" version="opset1">
			<data auto_broadcast="numpy" />
			<input>
				<port id="0" precision="FP32">
					<dim>-1</dim>
					<dim>1500</dim>
					<dim>1280</dim>
				</port>
				<port id="1" precision="FP32">
					<dim>1</dim>
					<dim>1</dim>
					<dim>1280</dim>
				</port>
			</input>
			<output>
				<port id="2" precision="FP32" names="359">
					<dim>-1</dim>
					<dim>1500</dim>
					<dim>1280</dim>
				</port>
			</output>
		</layer>
		<layer id="276" name="Constant_21084" type="Const" version="opset1">
			<data element_type="i64" shape="4" offset="14762272" size="32" />
			<output>
				<port id="0" precision="I64">
					<dim>4</dim>
				</port>
			</output>
		</layer>
		<layer id="277" name="__module.layers.2.self_attn/aten::view/Reshape_2" type="Reshape" version="opset1">
			<data special_zero="true" />
			<input>
				<port id="0" precision="FP32">
					<dim>-1</dim>
					<dim>1500</dim>
					<dim>1280</dim>
				</port>
				<port id="1" precision="I64">
					<dim>4</dim>
				</port>
			</input>
			<output>
				<port id="2" precision="FP32" names="361,value_states.5">
					<dim>-1</dim>
					<dim>1500</dim>
					<dim>20</dim>
					<dim>64</dim>
				</port>
			</output>
		</layer>
		<layer id="278" name="__module.layers.2.self_attn/aten::transpose/Constant_2" type="Const" version="opset1">
			<data element_type="i32" shape="4" offset="14762304" size="16" />
			<output>
				<port id="0" precision="I32">
					<dim>4</dim>
				</port>
			</output>
		</layer>
		<layer id="279" name="__module.layers.2.self_attn/aten::transpose/Transpose_2" type="Transpose" version="opset1">
			<input>
				<port id="0" precision="FP32">
					<dim>-1</dim>
					<dim>1500</dim>
					<dim>20</dim>
					<dim>64</dim>
				</port>
				<port id="1" precision="I32">
					<dim>4</dim>
				</port>
			</input>
			<output>
				<port id="2" precision="FP32" names="364">
					<dim>-1</dim>
					<dim>20</dim>
					<dim>1500</dim>
					<dim>64</dim>
				</port>
			</output>
		</layer>
		<layer id="280" name="__module.layers.2.self_attn/aten::scaled_dot_product_attention/ConvertLike" type="Const" version="opset1">
			<data element_type="f32" shape="" offset="18051920" size="4" />
			<output>
				<port id="0" precision="FP32" />
			</output>
		</layer>
		<layer id="281" name="__module.layers.2.self_attn/aten::scaled_dot_product_attention/ConvertLike_1" type="Const" version="opset1">
			<data element_type="f32" shape="" offset="18051924" size="4" />
			<output>
				<port id="0" precision="FP32" />
			</output>
		</layer>
		<layer id="282" name="__module.layers.2.self_attn/aten::scaled_dot_product_attention/ScaledDotProductAttention" type="ScaledDotProductAttention" version="opset13">
			<data causal="false" />
			<input>
				<port id="0" precision="FP32">
					<dim>-1</dim>
					<dim>20</dim>
					<dim>1500</dim>
					<dim>64</dim>
				</port>
				<port id="1" precision="FP32">
					<dim>-1</dim>
					<dim>20</dim>
					<dim>1500</dim>
					<dim>64</dim>
				</port>
				<port id="2" precision="FP32">
					<dim>-1</dim>
					<dim>20</dim>
					<dim>1500</dim>
					<dim>64</dim>
				</port>
				<port id="3" precision="FP32" />
				<port id="4" precision="FP32" />
			</input>
			<output>
				<port id="5" precision="FP32" names="369,attn_output.9">
					<dim>-1</dim>
					<dim>20</dim>
					<dim>1500</dim>
					<dim>64</dim>
				</port>
			</output>
		</layer>
		<layer id="283" name="__module.layers.2.self_attn/aten::transpose/Constant_3" type="Const" version="opset1">
			<data element_type="i32" shape="4" offset="14762304" size="16" />
			<output>
				<port id="0" precision="I32">
					<dim>4</dim>
				</port>
			</output>
		</layer>
		<layer id="284" name="__module.layers.2.self_attn/aten::transpose/Transpose_3" type="Transpose" version="opset1">
			<input>
				<port id="0" precision="FP32">
					<dim>-1</dim>
					<dim>20</dim>
					<dim>1500</dim>
					<dim>64</dim>
				</port>
				<port id="1" precision="I32">
					<dim>4</dim>
				</port>
			</input>
			<output>
				<port id="2" precision="FP32" names="370">
					<dim>-1</dim>
					<dim>1500</dim>
					<dim>20</dim>
					<dim>64</dim>
				</port>
			</output>
		</layer>
		<layer id="285" name="Constant_21085" type="Const" version="opset1">
			<data element_type="i64" shape="3" offset="18051928" size="24" />
			<output>
				<port id="0" precision="I64">
					<dim>3</dim>
				</port>
			</output>
		</layer>
		<layer id="286" name="__module.layers.2.self_attn/aten::reshape/Reshape" type="Reshape" version="opset1">
			<data special_zero="true" />
			<input>
				<port id="0" precision="FP32">
					<dim>-1</dim>
					<dim>1500</dim>
					<dim>20</dim>
					<dim>64</dim>
				</port>
				<port id="1" precision="I64">
					<dim>3</dim>
				</port>
			</input>
			<output>
				<port id="2" precision="FP32" names="373">
					<dim>-1</dim>
					<dim>1500</dim>
					<dim>1280</dim>
				</port>
			</output>
		</layer>
		<layer id="287" name="self.layers.2.self_attn.out_proj.weight" type="Const" version="opset1">
			<data element_type="u8" shape="1280, 1280" offset="57565552" size="1638400" />
			<output>
				<port id="0" precision="U8">
					<dim>1280</dim>
					<dim>1280</dim>
				</port>
			</output>
		</layer>
		<layer id="288" name="Convert_418681" type="Convert" version="opset1">
			<data destination_type="f16" />
			<input>
				<port id="0" precision="U8">
					<dim>1280</dim>
					<dim>1280</dim>
				</port>
			</input>
			<output>
				<port id="1" precision="FP16">
					<dim>1280</dim>
					<dim>1280</dim>
				</port>
			</output>
		</layer>
		<layer id="289" name="self.layers.2.self_attn.out_proj.weight/zero_point" type="Const" version="opset1">
			<data element_type="u8" shape="1280, 1" offset="59203952" size="1280" />
			<output>
				<port id="0" precision="U8">
					<dim>1280</dim>
					<dim>1</dim>
				</port>
			</output>
		</layer>
		<layer id="290" name="Convert_418684" type="Convert" version="opset1">
			<data destination_type="f16" />
			<input>
				<port id="0" precision="U8">
					<dim>1280</dim>
					<dim>1</dim>
				</port>
			</input>
			<output>
				<port id="1" precision="FP16">
					<dim>1280</dim>
					<dim>1</dim>
				</port>
			</output>
		</layer>
		<layer id="291" name="self.layers.2.self_attn.out_proj.weight/zero_point/subtract" type="Subtract" version="opset1">
			<data auto_broadcast="numpy" />
			<input>
				<port id="0" precision="FP16">
					<dim>1280</dim>
					<dim>1280</dim>
				</port>
				<port id="1" precision="FP16">
					<dim>1280</dim>
					<dim>1</dim>
				</port>
			</input>
			<output>
				<port id="2" precision="FP16">
					<dim>1280</dim>
					<dim>1280</dim>
				</port>
			</output>
		</layer>
		<layer id="292" name="self.layers.2.self_attn.out_proj.weight/scale" type="Const" version="opset1">
			<data element_type="f16" shape="1280, 1" offset="59205232" size="2560" />
			<output>
				<port id="0" precision="FP16">
					<dim>1280</dim>
					<dim>1</dim>
				</port>
			</output>
		</layer>
		<layer id="293" name="self.layers.2.self_attn.out_proj.weight/fq_weights_1" type="Multiply" version="opset1">
			<data auto_broadcast="numpy" />
			<input>
				<port id="0" precision="FP16">
					<dim>1280</dim>
					<dim>1280</dim>
				</port>
				<port id="1" precision="FP16">
					<dim>1280</dim>
					<dim>1</dim>
				</port>
			</input>
			<output>
				<port id="2" precision="FP16">
					<dim>1280</dim>
					<dim>1280</dim>
				</port>
			</output>
		</layer>
		<layer id="294" name="self.layers.2.self_attn.out_proj.weight/fq_weights_1/convert" type="Convert" version="opset1">
			<data destination_type="f32" />
			<input>
				<port id="0" precision="FP16">
					<dim>1280</dim>
					<dim>1280</dim>
				</port>
			</input>
			<output>
				<port id="1" precision="FP32">
					<dim>1280</dim>
					<dim>1280</dim>
				</port>
			</output>
		</layer>
		<layer id="295" name="__module.layers.2.self_attn.out_proj/aten::linear/MatMul" type="MatMul" version="opset1">
			<data transpose_a="false" transpose_b="true" />
			<input>
				<port id="0" precision="FP32">
					<dim>-1</dim>
					<dim>1500</dim>
					<dim>1280</dim>
				</port>
				<port id="1" precision="FP32">
					<dim>1280</dim>
					<dim>1280</dim>
				</port>
			</input>
			<output>
				<port id="2" precision="FP32">
					<dim>-1</dim>
					<dim>1500</dim>
					<dim>1280</dim>
				</port>
			</output>
		</layer>
		<layer id="296" name="Constant_20197" type="Const" version="opset1">
			<data element_type="f32" shape="1, 1, 1280" offset="59207792" size="5120" />
			<output>
				<port id="0" precision="FP32">
					<dim>1</dim>
					<dim>1</dim>
					<dim>1280</dim>
				</port>
			</output>
		</layer>
		<layer id="297" name="__module.layers.2.self_attn.out_proj/aten::linear/Add" type="Add" version="opset1">
			<data auto_broadcast="numpy" />
			<input>
				<port id="0" precision="FP32">
					<dim>-1</dim>
					<dim>1500</dim>
					<dim>1280</dim>
				</port>
				<port id="1" precision="FP32">
					<dim>1</dim>
					<dim>1</dim>
					<dim>1280</dim>
				</port>
			</input>
			<output>
				<port id="2" precision="FP32" names="377,input.47">
					<dim>-1</dim>
					<dim>1500</dim>
					<dim>1280</dim>
				</port>
			</output>
		</layer>
		<layer id="298" name="__module.layers.2/aten::add/Add" type="Add" version="opset1">
			<data auto_broadcast="numpy" />
			<input>
				<port id="0" precision="FP32">
					<dim>-1</dim>
					<dim>1500</dim>
					<dim>1280</dim>
				</port>
				<port id="1" precision="FP32">
					<dim>-1</dim>
					<dim>1500</dim>
					<dim>1280</dim>
				</port>
			</input>
			<output>
				<port id="2" precision="FP32" names="379,input.49">
					<dim>-1</dim>
					<dim>1500</dim>
					<dim>1280</dim>
				</port>
			</output>
		</layer>
		<layer id="299" name="__module.layers.2.final_layer_norm/aten::layer_norm/Multiply" type="Const" version="opset1">
			<data element_type="i32" shape="1" offset="13104664" size="4" />
			<output>
				<port id="0" precision="I32">
					<dim>1</dim>
				</port>
			</output>
		</layer>
		<layer id="300" name="__module.layers.2.final_layer_norm/aten::layer_norm/MVN" type="MVN" version="opset6">
			<data eps="9.9999997473787516e-06" normalize_variance="true" eps_mode="INSIDE_SQRT" />
			<input>
				<port id="0" precision="FP32">
					<dim>-1</dim>
					<dim>1500</dim>
					<dim>1280</dim>
				</port>
				<port id="1" precision="I32">
					<dim>1</dim>
				</port>
			</input>
			<output>
				<port id="2" precision="FP32">
					<dim>-1</dim>
					<dim>1500</dim>
					<dim>1280</dim>
				</port>
			</output>
		</layer>
		<layer id="301" name="Constant_20198" type="Const" version="opset1">
			<data element_type="f32" shape="1, 1, 1280" offset="59212912" size="5120" />
			<output>
				<port id="0" precision="FP32">
					<dim>1</dim>
					<dim>1</dim>
					<dim>1280</dim>
				</port>
			</output>
		</layer>
		<layer id="302" name="__module.layers.2.final_layer_norm/aten::layer_norm/Multiply_1" type="Multiply" version="opset1">
			<data auto_broadcast="numpy" />
			<input>
				<port id="0" precision="FP32">
					<dim>-1</dim>
					<dim>1500</dim>
					<dim>1280</dim>
				</port>
				<port id="1" precision="FP32">
					<dim>1</dim>
					<dim>1</dim>
					<dim>1280</dim>
				</port>
			</input>
			<output>
				<port id="2" precision="FP32">
					<dim>-1</dim>
					<dim>1500</dim>
					<dim>1280</dim>
				</port>
			</output>
		</layer>
		<layer id="303" name="Constant_20199" type="Const" version="opset1">
			<data element_type="f32" shape="1, 1, 1280" offset="59218032" size="5120" />
			<output>
				<port id="0" precision="FP32">
					<dim>1</dim>
					<dim>1</dim>
					<dim>1280</dim>
				</port>
			</output>
		</layer>
		<layer id="304" name="__module.layers.2.final_layer_norm/aten::layer_norm/Add" type="Add" version="opset1">
			<data auto_broadcast="numpy" />
			<input>
				<port id="0" precision="FP32">
					<dim>-1</dim>
					<dim>1500</dim>
					<dim>1280</dim>
				</port>
				<port id="1" precision="FP32">
					<dim>1</dim>
					<dim>1</dim>
					<dim>1280</dim>
				</port>
			</input>
			<output>
				<port id="2" precision="FP32" names="383,input.51">
					<dim>-1</dim>
					<dim>1500</dim>
					<dim>1280</dim>
				</port>
			</output>
		</layer>
		<layer id="305" name="self.layers.2.fc1.weight" type="Const" version="opset1">
			<data element_type="u8" shape="5120, 1280" offset="59223152" size="6553600" />
			<output>
				<port id="0" precision="U8">
					<dim>5120</dim>
					<dim>1280</dim>
				</port>
			</output>
		</layer>
		<layer id="306" name="Convert_74665" type="Convert" version="opset1">
			<data destination_type="f16" />
			<input>
				<port id="0" precision="U8">
					<dim>5120</dim>
					<dim>1280</dim>
				</port>
			</input>
			<output>
				<port id="1" precision="FP16">
					<dim>5120</dim>
					<dim>1280</dim>
				</port>
			</output>
		</layer>
		<layer id="307" name="self.layers.2.fc1.weight/zero_point" type="Const" version="opset1">
			<data element_type="u8" shape="5120, 1" offset="65776752" size="5120" />
			<output>
				<port id="0" precision="U8">
					<dim>5120</dim>
					<dim>1</dim>
				</port>
			</output>
		</layer>
		<layer id="308" name="Convert_74668" type="Convert" version="opset1">
			<data destination_type="f16" />
			<input>
				<port id="0" precision="U8">
					<dim>5120</dim>
					<dim>1</dim>
				</port>
			</input>
			<output>
				<port id="1" precision="FP16">
					<dim>5120</dim>
					<dim>1</dim>
				</port>
			</output>
		</layer>
		<layer id="309" name="self.layers.2.fc1.weight/zero_point/subtract" type="Subtract" version="opset1">
			<data auto_broadcast="numpy" />
			<input>
				<port id="0" precision="FP16">
					<dim>5120</dim>
					<dim>1280</dim>
				</port>
				<port id="1" precision="FP16">
					<dim>5120</dim>
					<dim>1</dim>
				</port>
			</input>
			<output>
				<port id="2" precision="FP16">
					<dim>5120</dim>
					<dim>1280</dim>
				</port>
			</output>
		</layer>
		<layer id="310" name="self.layers.2.fc1.weight/scale" type="Const" version="opset1">
			<data element_type="f16" shape="5120, 1" offset="65781872" size="10240" />
			<output>
				<port id="0" precision="FP16">
					<dim>5120</dim>
					<dim>1</dim>
				</port>
			</output>
		</layer>
		<layer id="311" name="self.layers.2.fc1.weight/fq_weights_1" type="Multiply" version="opset1">
			<data auto_broadcast="numpy" />
			<input>
				<port id="0" precision="FP16">
					<dim>5120</dim>
					<dim>1280</dim>
				</port>
				<port id="1" precision="FP16">
					<dim>5120</dim>
					<dim>1</dim>
				</port>
			</input>
			<output>
				<port id="2" precision="FP16">
					<dim>5120</dim>
					<dim>1280</dim>
				</port>
			</output>
		</layer>
		<layer id="312" name="self.layers.2.fc1.weight/fq_weights_1/convert" type="Convert" version="opset1">
			<data destination_type="f32" />
			<input>
				<port id="0" precision="FP16">
					<dim>5120</dim>
					<dim>1280</dim>
				</port>
			</input>
			<output>
				<port id="1" precision="FP32">
					<dim>5120</dim>
					<dim>1280</dim>
				</port>
			</output>
		</layer>
		<layer id="313" name="__module.layers.2.fc1/aten::linear/MatMul" type="MatMul" version="opset1">
			<data transpose_a="false" transpose_b="true" />
			<input>
				<port id="0" precision="FP32">
					<dim>-1</dim>
					<dim>1500</dim>
					<dim>1280</dim>
				</port>
				<port id="1" precision="FP32">
					<dim>5120</dim>
					<dim>1280</dim>
				</port>
			</input>
			<output>
				<port id="2" precision="FP32">
					<dim>-1</dim>
					<dim>1500</dim>
					<dim>5120</dim>
				</port>
			</output>
		</layer>
		<layer id="314" name="Constant_20200" type="Const" version="opset1">
			<data element_type="f32" shape="1, 1, 5120" offset="65792112" size="20480" />
			<output>
				<port id="0" precision="FP32">
					<dim>1</dim>
					<dim>1</dim>
					<dim>5120</dim>
				</port>
			</output>
		</layer>
		<layer id="315" name="__module.layers.2.fc1/aten::linear/Add" type="Add" version="opset1">
			<data auto_broadcast="numpy" />
			<input>
				<port id="0" precision="FP32">
					<dim>-1</dim>
					<dim>1500</dim>
					<dim>5120</dim>
				</port>
				<port id="1" precision="FP32">
					<dim>1</dim>
					<dim>1</dim>
					<dim>5120</dim>
				</port>
			</input>
			<output>
				<port id="2" precision="FP32" names="386,input.53">
					<dim>-1</dim>
					<dim>1500</dim>
					<dim>5120</dim>
				</port>
			</output>
		</layer>
		<layer id="316" name="__module.layers.2.activation_fn/aten::gelu/Gelu" type="Gelu" version="opset7">
			<data approximation_mode="ERF" />
			<input>
				<port id="0" precision="FP32">
					<dim>-1</dim>
					<dim>1500</dim>
					<dim>5120</dim>
				</port>
			</input>
			<output>
				<port id="1" precision="FP32" names="387,input.55">
					<dim>-1</dim>
					<dim>1500</dim>
					<dim>5120</dim>
				</port>
			</output>
		</layer>
		<layer id="317" name="self.layers.2.fc2.weight" type="Const" version="opset1">
			<data element_type="u8" shape="1280, 5120" offset="65812592" size="6553600" />
			<output>
				<port id="0" precision="U8">
					<dim>1280</dim>
					<dim>5120</dim>
				</port>
			</output>
		</layer>
		<layer id="318" name="Convert_79443" type="Convert" version="opset1">
			<data destination_type="f16" />
			<input>
				<port id="0" precision="U8">
					<dim>1280</dim>
					<dim>5120</dim>
				</port>
			</input>
			<output>
				<port id="1" precision="FP16">
					<dim>1280</dim>
					<dim>5120</dim>
				</port>
			</output>
		</layer>
		<layer id="319" name="self.layers.2.fc2.weight/zero_point" type="Const" version="opset1">
			<data element_type="u8" shape="1280, 1" offset="72366192" size="1280" />
			<output>
				<port id="0" precision="U8">
					<dim>1280</dim>
					<dim>1</dim>
				</port>
			</output>
		</layer>
		<layer id="320" name="Convert_79446" type="Convert" version="opset1">
			<data destination_type="f16" />
			<input>
				<port id="0" precision="U8">
					<dim>1280</dim>
					<dim>1</dim>
				</port>
			</input>
			<output>
				<port id="1" precision="FP16">
					<dim>1280</dim>
					<dim>1</dim>
				</port>
			</output>
		</layer>
		<layer id="321" name="self.layers.2.fc2.weight/zero_point/subtract" type="Subtract" version="opset1">
			<data auto_broadcast="numpy" />
			<input>
				<port id="0" precision="FP16">
					<dim>1280</dim>
					<dim>5120</dim>
				</port>
				<port id="1" precision="FP16">
					<dim>1280</dim>
					<dim>1</dim>
				</port>
			</input>
			<output>
				<port id="2" precision="FP16">
					<dim>1280</dim>
					<dim>5120</dim>
				</port>
			</output>
		</layer>
		<layer id="322" name="self.layers.2.fc2.weight/scale" type="Const" version="opset1">
			<data element_type="f16" shape="1280, 1" offset="72367472" size="2560" />
			<output>
				<port id="0" precision="FP16">
					<dim>1280</dim>
					<dim>1</dim>
				</port>
			</output>
		</layer>
		<layer id="323" name="self.layers.2.fc2.weight/fq_weights_1" type="Multiply" version="opset1">
			<data auto_broadcast="numpy" />
			<input>
				<port id="0" precision="FP16">
					<dim>1280</dim>
					<dim>5120</dim>
				</port>
				<port id="1" precision="FP16">
					<dim>1280</dim>
					<dim>1</dim>
				</port>
			</input>
			<output>
				<port id="2" precision="FP16">
					<dim>1280</dim>
					<dim>5120</dim>
				</port>
			</output>
		</layer>
		<layer id="324" name="self.layers.2.fc2.weight/fq_weights_1/convert" type="Convert" version="opset1">
			<data destination_type="f32" />
			<input>
				<port id="0" precision="FP16">
					<dim>1280</dim>
					<dim>5120</dim>
				</port>
			</input>
			<output>
				<port id="1" precision="FP32">
					<dim>1280</dim>
					<dim>5120</dim>
				</port>
			</output>
		</layer>
		<layer id="325" name="__module.layers.2.fc2/aten::linear/MatMul" type="MatMul" version="opset1">
			<data transpose_a="false" transpose_b="true" />
			<input>
				<port id="0" precision="FP32">
					<dim>-1</dim>
					<dim>1500</dim>
					<dim>5120</dim>
				</port>
				<port id="1" precision="FP32">
					<dim>1280</dim>
					<dim>5120</dim>
				</port>
			</input>
			<output>
				<port id="2" precision="FP32">
					<dim>-1</dim>
					<dim>1500</dim>
					<dim>1280</dim>
				</port>
			</output>
		</layer>
		<layer id="326" name="Constant_20201" type="Const" version="opset1">
			<data element_type="f32" shape="1, 1, 1280" offset="72370032" size="5120" />
			<output>
				<port id="0" precision="FP32">
					<dim>1</dim>
					<dim>1</dim>
					<dim>1280</dim>
				</port>
			</output>
		</layer>
		<layer id="327" name="__module.layers.2.fc2/aten::linear/Add" type="Add" version="opset1">
			<data auto_broadcast="numpy" />
			<input>
				<port id="0" precision="FP32">
					<dim>-1</dim>
					<dim>1500</dim>
					<dim>1280</dim>
				</port>
				<port id="1" precision="FP32">
					<dim>1</dim>
					<dim>1</dim>
					<dim>1280</dim>
				</port>
			</input>
			<output>
				<port id="2" precision="FP32" names="391,input.59">
					<dim>-1</dim>
					<dim>1500</dim>
					<dim>1280</dim>
				</port>
			</output>
		</layer>
		<layer id="328" name="__module.layers.2/aten::add/Add_1" type="Add" version="opset1">
			<data auto_broadcast="numpy" />
			<input>
				<port id="0" precision="FP32">
					<dim>-1</dim>
					<dim>1500</dim>
					<dim>1280</dim>
				</port>
				<port id="1" precision="FP32">
					<dim>-1</dim>
					<dim>1500</dim>
					<dim>1280</dim>
				</port>
			</input>
			<output>
				<port id="2" precision="FP32" names="393,input.61">
					<dim>-1</dim>
					<dim>1500</dim>
					<dim>1280</dim>
				</port>
			</output>
		</layer>
		<layer id="329" name="__module.layers.3.self_attn_layer_norm/aten::layer_norm/Multiply" type="Const" version="opset1">
			<data element_type="i32" shape="1" offset="13104664" size="4" />
			<output>
				<port id="0" precision="I32">
					<dim>1</dim>
				</port>
			</output>
		</layer>
		<layer id="330" name="__module.layers.3.self_attn_layer_norm/aten::layer_norm/MVN" type="MVN" version="opset6">
			<data eps="9.9999997473787516e-06" normalize_variance="true" eps_mode="INSIDE_SQRT" />
			<input>
				<port id="0" precision="FP32">
					<dim>-1</dim>
					<dim>1500</dim>
					<dim>1280</dim>
				</port>
				<port id="1" precision="I32">
					<dim>1</dim>
				</port>
			</input>
			<output>
				<port id="2" precision="FP32">
					<dim>-1</dim>
					<dim>1500</dim>
					<dim>1280</dim>
				</port>
			</output>
		</layer>
		<layer id="331" name="Constant_20202" type="Const" version="opset1">
			<data element_type="f32" shape="1, 1, 1280" offset="72375152" size="5120" />
			<output>
				<port id="0" precision="FP32">
					<dim>1</dim>
					<dim>1</dim>
					<dim>1280</dim>
				</port>
			</output>
		</layer>
		<layer id="332" name="__module.layers.3.self_attn_layer_norm/aten::layer_norm/Multiply_1" type="Multiply" version="opset1">
			<data auto_broadcast="numpy" />
			<input>
				<port id="0" precision="FP32">
					<dim>-1</dim>
					<dim>1500</dim>
					<dim>1280</dim>
				</port>
				<port id="1" precision="FP32">
					<dim>1</dim>
					<dim>1</dim>
					<dim>1280</dim>
				</port>
			</input>
			<output>
				<port id="2" precision="FP32">
					<dim>-1</dim>
					<dim>1500</dim>
					<dim>1280</dim>
				</port>
			</output>
		</layer>
		<layer id="333" name="Constant_20203" type="Const" version="opset1">
			<data element_type="f32" shape="1, 1, 1280" offset="72380272" size="5120" />
			<output>
				<port id="0" precision="FP32">
					<dim>1</dim>
					<dim>1</dim>
					<dim>1280</dim>
				</port>
			</output>
		</layer>
		<layer id="334" name="__module.layers.3.self_attn_layer_norm/aten::layer_norm/Add" type="Add" version="opset1">
			<data auto_broadcast="numpy" />
			<input>
				<port id="0" precision="FP32">
					<dim>-1</dim>
					<dim>1500</dim>
					<dim>1280</dim>
				</port>
				<port id="1" precision="FP32">
					<dim>1</dim>
					<dim>1</dim>
					<dim>1280</dim>
				</port>
			</input>
			<output>
				<port id="2" precision="FP32" names="418,hidden_states.19">
					<dim>-1</dim>
					<dim>1500</dim>
					<dim>1280</dim>
				</port>
			</output>
		</layer>
		<layer id="335" name="self.layers.3.self_attn.q_proj.weight" type="Const" version="opset1">
			<data element_type="u8" shape="1280, 1280" offset="72385392" size="1638400" />
			<output>
				<port id="0" precision="U8">
					<dim>1280</dim>
					<dim>1280</dim>
				</port>
			</output>
		</layer>
		<layer id="336" name="Convert_433015" type="Convert" version="opset1">
			<data destination_type="f16" />
			<input>
				<port id="0" precision="U8">
					<dim>1280</dim>
					<dim>1280</dim>
				</port>
			</input>
			<output>
				<port id="1" precision="FP16">
					<dim>1280</dim>
					<dim>1280</dim>
				</port>
			</output>
		</layer>
		<layer id="337" name="self.layers.3.self_attn.q_proj.weight/zero_point" type="Const" version="opset1">
			<data element_type="u8" shape="1280, 1" offset="74023792" size="1280" />
			<output>
				<port id="0" precision="U8">
					<dim>1280</dim>
					<dim>1</dim>
				</port>
			</output>
		</layer>
		<layer id="338" name="Convert_433018" type="Convert" version="opset1">
			<data destination_type="f16" />
			<input>
				<port id="0" precision="U8">
					<dim>1280</dim>
					<dim>1</dim>
				</port>
			</input>
			<output>
				<port id="1" precision="FP16">
					<dim>1280</dim>
					<dim>1</dim>
				</port>
			</output>
		</layer>
		<layer id="339" name="self.layers.3.self_attn.q_proj.weight/zero_point/subtract" type="Subtract" version="opset1">
			<data auto_broadcast="numpy" />
			<input>
				<port id="0" precision="FP16">
					<dim>1280</dim>
					<dim>1280</dim>
				</port>
				<port id="1" precision="FP16">
					<dim>1280</dim>
					<dim>1</dim>
				</port>
			</input>
			<output>
				<port id="2" precision="FP16">
					<dim>1280</dim>
					<dim>1280</dim>
				</port>
			</output>
		</layer>
		<layer id="340" name="self.layers.3.self_attn.q_proj.weight/scale" type="Const" version="opset1">
			<data element_type="f16" shape="1280, 1" offset="74025072" size="2560" />
			<output>
				<port id="0" precision="FP16">
					<dim>1280</dim>
					<dim>1</dim>
				</port>
			</output>
		</layer>
		<layer id="341" name="self.layers.3.self_attn.q_proj.weight/fq_weights_1" type="Multiply" version="opset1">
			<data auto_broadcast="numpy" />
			<input>
				<port id="0" precision="FP16">
					<dim>1280</dim>
					<dim>1280</dim>
				</port>
				<port id="1" precision="FP16">
					<dim>1280</dim>
					<dim>1</dim>
				</port>
			</input>
			<output>
				<port id="2" precision="FP16">
					<dim>1280</dim>
					<dim>1280</dim>
				</port>
			</output>
		</layer>
		<layer id="342" name="self.layers.3.self_attn.q_proj.weight/fq_weights_1/convert" type="Convert" version="opset1">
			<data destination_type="f32" />
			<input>
				<port id="0" precision="FP16">
					<dim>1280</dim>
					<dim>1280</dim>
				</port>
			</input>
			<output>
				<port id="1" precision="FP32">
					<dim>1280</dim>
					<dim>1280</dim>
				</port>
			</output>
		</layer>
		<layer id="343" name="__module.layers.3.self_attn.q_proj/aten::linear/MatMul" type="MatMul" version="opset1">
			<data transpose_a="false" transpose_b="true" />
			<input>
				<port id="0" precision="FP32">
					<dim>-1</dim>
					<dim>1500</dim>
					<dim>1280</dim>
				</port>
				<port id="1" precision="FP32">
					<dim>1280</dim>
					<dim>1280</dim>
				</port>
			</input>
			<output>
				<port id="2" precision="FP32">
					<dim>-1</dim>
					<dim>1500</dim>
					<dim>1280</dim>
				</port>
			</output>
		</layer>
		<layer id="344" name="Constant_20204" type="Const" version="opset1">
			<data element_type="f32" shape="1, 1, 1" offset="14757148" size="4" />
			<output>
				<port id="0" precision="FP32">
					<dim>1</dim>
					<dim>1</dim>
					<dim>1</dim>
				</port>
			</output>
		</layer>
		<layer id="345" name="Multiply_19727" type="Multiply" version="opset1">
			<data auto_broadcast="numpy" />
			<input>
				<port id="0" precision="FP32">
					<dim>-1</dim>
					<dim>1500</dim>
					<dim>1280</dim>
				</port>
				<port id="1" precision="FP32">
					<dim>1</dim>
					<dim>1</dim>
					<dim>1</dim>
				</port>
			</input>
			<output>
				<port id="2" precision="FP32">
					<dim>-1</dim>
					<dim>1500</dim>
					<dim>1280</dim>
				</port>
			</output>
		</layer>
		<layer id="346" name="Constant_20205" type="Const" version="opset1">
			<data element_type="f32" shape="1, 1, 1280" offset="74027632" size="5120" />
			<output>
				<port id="0" precision="FP32">
					<dim>1</dim>
					<dim>1</dim>
					<dim>1280</dim>
				</port>
			</output>
		</layer>
		<layer id="347" name="__module.layers.3.self_attn/aten::mul/Multiply" type="Add" version="opset1">
			<data auto_broadcast="numpy" />
			<input>
				<port id="0" precision="FP32">
					<dim>-1</dim>
					<dim>1500</dim>
					<dim>1280</dim>
				</port>
				<port id="1" precision="FP32">
					<dim>1</dim>
					<dim>1</dim>
					<dim>1280</dim>
				</port>
			</input>
			<output>
				<port id="2" precision="FP32" names="428,query_states.13">
					<dim>-1</dim>
					<dim>1500</dim>
					<dim>1280</dim>
				</port>
			</output>
		</layer>
		<layer id="348" name="Constant_21086" type="Const" version="opset1">
			<data element_type="i64" shape="4" offset="14762272" size="32" />
			<output>
				<port id="0" precision="I64">
					<dim>4</dim>
				</port>
			</output>
		</layer>
		<layer id="349" name="__module.layers.3.self_attn/aten::view/Reshape" type="Reshape" version="opset1">
			<data special_zero="true" />
			<input>
				<port id="0" precision="FP32">
					<dim>-1</dim>
					<dim>1500</dim>
					<dim>1280</dim>
				</port>
				<port id="1" precision="I64">
					<dim>4</dim>
				</port>
			</input>
			<output>
				<port id="2" precision="FP32" names="430,query_states.15">
					<dim>-1</dim>
					<dim>1500</dim>
					<dim>20</dim>
					<dim>64</dim>
				</port>
			</output>
		</layer>
		<layer id="350" name="__module.layers.3.self_attn/aten::transpose/Constant" type="Const" version="opset1">
			<data element_type="i32" shape="4" offset="14762304" size="16" />
			<output>
				<port id="0" precision="I32">
					<dim>4</dim>
				</port>
			</output>
		</layer>
		<layer id="351" name="__module.layers.3.self_attn/aten::transpose/Transpose" type="Transpose" version="opset1">
			<input>
				<port id="0" precision="FP32">
					<dim>-1</dim>
					<dim>1500</dim>
					<dim>20</dim>
					<dim>64</dim>
				</port>
				<port id="1" precision="I32">
					<dim>4</dim>
				</port>
			</input>
			<output>
				<port id="2" precision="FP32" names="431">
					<dim>-1</dim>
					<dim>20</dim>
					<dim>1500</dim>
					<dim>64</dim>
				</port>
			</output>
		</layer>
		<layer id="352" name="self.layers.3.self_attn.k_proj.weight" type="Const" version="opset1">
			<data element_type="u8" shape="1280, 1280" offset="74032752" size="1638400" />
			<output>
				<port id="0" precision="U8">
					<dim>1280</dim>
					<dim>1280</dim>
				</port>
			</output>
		</layer>
		<layer id="353" name="Convert_428237" type="Convert" version="opset1">
			<data destination_type="f16" />
			<input>
				<port id="0" precision="U8">
					<dim>1280</dim>
					<dim>1280</dim>
				</port>
			</input>
			<output>
				<port id="1" precision="FP16">
					<dim>1280</dim>
					<dim>1280</dim>
				</port>
			</output>
		</layer>
		<layer id="354" name="self.layers.3.self_attn.k_proj.weight/zero_point" type="Const" version="opset1">
			<data element_type="u8" shape="1280, 1" offset="75671152" size="1280" />
			<output>
				<port id="0" precision="U8">
					<dim>1280</dim>
					<dim>1</dim>
				</port>
			</output>
		</layer>
		<layer id="355" name="Convert_428240" type="Convert" version="opset1">
			<data destination_type="f16" />
			<input>
				<port id="0" precision="U8">
					<dim>1280</dim>
					<dim>1</dim>
				</port>
			</input>
			<output>
				<port id="1" precision="FP16">
					<dim>1280</dim>
					<dim>1</dim>
				</port>
			</output>
		</layer>
		<layer id="356" name="self.layers.3.self_attn.k_proj.weight/zero_point/subtract" type="Subtract" version="opset1">
			<data auto_broadcast="numpy" />
			<input>
				<port id="0" precision="FP16">
					<dim>1280</dim>
					<dim>1280</dim>
				</port>
				<port id="1" precision="FP16">
					<dim>1280</dim>
					<dim>1</dim>
				</port>
			</input>
			<output>
				<port id="2" precision="FP16">
					<dim>1280</dim>
					<dim>1280</dim>
				</port>
			</output>
		</layer>
		<layer id="357" name="self.layers.3.self_attn.k_proj.weight/scale" type="Const" version="opset1">
			<data element_type="f16" shape="1280, 1" offset="75672432" size="2560" />
			<output>
				<port id="0" precision="FP16">
					<dim>1280</dim>
					<dim>1</dim>
				</port>
			</output>
		</layer>
		<layer id="358" name="self.layers.3.self_attn.k_proj.weight/fq_weights_1" type="Multiply" version="opset1">
			<data auto_broadcast="numpy" />
			<input>
				<port id="0" precision="FP16">
					<dim>1280</dim>
					<dim>1280</dim>
				</port>
				<port id="1" precision="FP16">
					<dim>1280</dim>
					<dim>1</dim>
				</port>
			</input>
			<output>
				<port id="2" precision="FP16">
					<dim>1280</dim>
					<dim>1280</dim>
				</port>
			</output>
		</layer>
		<layer id="359" name="self.layers.3.self_attn.k_proj.weight/fq_weights_1/convert" type="Convert" version="opset1">
			<data destination_type="f32" />
			<input>
				<port id="0" precision="FP16">
					<dim>1280</dim>
					<dim>1280</dim>
				</port>
			</input>
			<output>
				<port id="1" precision="FP32">
					<dim>1280</dim>
					<dim>1280</dim>
				</port>
			</output>
		</layer>
		<layer id="360" name="__module.layers.3.self_attn.k_proj/aten::linear/MatMul" type="MatMul" version="opset1">
			<data transpose_a="false" transpose_b="true" />
			<input>
				<port id="0" precision="FP32">
					<dim>-1</dim>
					<dim>1500</dim>
					<dim>1280</dim>
				</port>
				<port id="1" precision="FP32">
					<dim>1280</dim>
					<dim>1280</dim>
				</port>
			</input>
			<output>
				<port id="2" precision="FP32" names="434">
					<dim>-1</dim>
					<dim>1500</dim>
					<dim>1280</dim>
				</port>
			</output>
		</layer>
		<layer id="361" name="Constant_21087" type="Const" version="opset1">
			<data element_type="i64" shape="4" offset="14762272" size="32" />
			<output>
				<port id="0" precision="I64">
					<dim>4</dim>
				</port>
			</output>
		</layer>
		<layer id="362" name="__module.layers.3.self_attn/aten::view/Reshape_1" type="Reshape" version="opset1">
			<data special_zero="true" />
			<input>
				<port id="0" precision="FP32">
					<dim>-1</dim>
					<dim>1500</dim>
					<dim>1280</dim>
				</port>
				<port id="1" precision="I64">
					<dim>4</dim>
				</port>
			</input>
			<output>
				<port id="2" precision="FP32" names="436,key_states.7">
					<dim>-1</dim>
					<dim>1500</dim>
					<dim>20</dim>
					<dim>64</dim>
				</port>
			</output>
		</layer>
		<layer id="363" name="__module.layers.3.self_attn/aten::transpose/Constant_1" type="Const" version="opset1">
			<data element_type="i32" shape="4" offset="14762304" size="16" />
			<output>
				<port id="0" precision="I32">
					<dim>4</dim>
				</port>
			</output>
		</layer>
		<layer id="364" name="__module.layers.3.self_attn/aten::transpose/Transpose_1" type="Transpose" version="opset1">
			<input>
				<port id="0" precision="FP32">
					<dim>-1</dim>
					<dim>1500</dim>
					<dim>20</dim>
					<dim>64</dim>
				</port>
				<port id="1" precision="I32">
					<dim>4</dim>
				</port>
			</input>
			<output>
				<port id="2" precision="FP32" names="442">
					<dim>-1</dim>
					<dim>20</dim>
					<dim>1500</dim>
					<dim>64</dim>
				</port>
			</output>
		</layer>
		<layer id="365" name="self.layers.3.self_attn.v_proj.weight" type="Const" version="opset1">
			<data element_type="u8" shape="1280, 1280" offset="75674992" size="1638400" />
			<output>
				<port id="0" precision="U8">
					<dim>1280</dim>
					<dim>1280</dim>
				</port>
			</output>
		</layer>
		<layer id="366" name="Convert_423459" type="Convert" version="opset1">
			<data destination_type="f16" />
			<input>
				<port id="0" precision="U8">
					<dim>1280</dim>
					<dim>1280</dim>
				</port>
			</input>
			<output>
				<port id="1" precision="FP16">
					<dim>1280</dim>
					<dim>1280</dim>
				</port>
			</output>
		</layer>
		<layer id="367" name="self.layers.3.self_attn.v_proj.weight/zero_point" type="Const" version="opset1">
			<data element_type="u8" shape="1280, 1" offset="77313392" size="1280" />
			<output>
				<port id="0" precision="U8">
					<dim>1280</dim>
					<dim>1</dim>
				</port>
			</output>
		</layer>
		<layer id="368" name="Convert_423462" type="Convert" version="opset1">
			<data destination_type="f16" />
			<input>
				<port id="0" precision="U8">
					<dim>1280</dim>
					<dim>1</dim>
				</port>
			</input>
			<output>
				<port id="1" precision="FP16">
					<dim>1280</dim>
					<dim>1</dim>
				</port>
			</output>
		</layer>
		<layer id="369" name="self.layers.3.self_attn.v_proj.weight/zero_point/subtract" type="Subtract" version="opset1">
			<data auto_broadcast="numpy" />
			<input>
				<port id="0" precision="FP16">
					<dim>1280</dim>
					<dim>1280</dim>
				</port>
				<port id="1" precision="FP16">
					<dim>1280</dim>
					<dim>1</dim>
				</port>
			</input>
			<output>
				<port id="2" precision="FP16">
					<dim>1280</dim>
					<dim>1280</dim>
				</port>
			</output>
		</layer>
		<layer id="370" name="self.layers.3.self_attn.v_proj.weight/scale" type="Const" version="opset1">
			<data element_type="f16" shape="1280, 1" offset="77314672" size="2560" />
			<output>
				<port id="0" precision="FP16">
					<dim>1280</dim>
					<dim>1</dim>
				</port>
			</output>
		</layer>
		<layer id="371" name="self.layers.3.self_attn.v_proj.weight/fq_weights_1" type="Multiply" version="opset1">
			<data auto_broadcast="numpy" />
			<input>
				<port id="0" precision="FP16">
					<dim>1280</dim>
					<dim>1280</dim>
				</port>
				<port id="1" precision="FP16">
					<dim>1280</dim>
					<dim>1</dim>
				</port>
			</input>
			<output>
				<port id="2" precision="FP16">
					<dim>1280</dim>
					<dim>1280</dim>
				</port>
			</output>
		</layer>
		<layer id="372" name="self.layers.3.self_attn.v_proj.weight/fq_weights_1/convert" type="Convert" version="opset1">
			<data destination_type="f32" />
			<input>
				<port id="0" precision="FP16">
					<dim>1280</dim>
					<dim>1280</dim>
				</port>
			</input>
			<output>
				<port id="1" precision="FP32">
					<dim>1280</dim>
					<dim>1280</dim>
				</port>
			</output>
		</layer>
		<layer id="373" name="__module.layers.3.self_attn.v_proj/aten::linear/MatMul" type="MatMul" version="opset1">
			<data transpose_a="false" transpose_b="true" />
			<input>
				<port id="0" precision="FP32">
					<dim>-1</dim>
					<dim>1500</dim>
					<dim>1280</dim>
				</port>
				<port id="1" precision="FP32">
					<dim>1280</dim>
					<dim>1280</dim>
				</port>
			</input>
			<output>
				<port id="2" precision="FP32">
					<dim>-1</dim>
					<dim>1500</dim>
					<dim>1280</dim>
				</port>
			</output>
		</layer>
		<layer id="374" name="Constant_20206" type="Const" version="opset1">
			<data element_type="f32" shape="1, 1, 1280" offset="77317232" size="5120" />
			<output>
				<port id="0" precision="FP32">
					<dim>1</dim>
					<dim>1</dim>
					<dim>1280</dim>
				</port>
			</output>
		</layer>
		<layer id="375" name="__module.layers.3.self_attn.v_proj/aten::linear/Add" type="Add" version="opset1">
			<data auto_broadcast="numpy" />
			<input>
				<port id="0" precision="FP32">
					<dim>-1</dim>
					<dim>1500</dim>
					<dim>1280</dim>
				</port>
				<port id="1" precision="FP32">
					<dim>1</dim>
					<dim>1</dim>
					<dim>1280</dim>
				</port>
			</input>
			<output>
				<port id="2" precision="FP32" names="439">
					<dim>-1</dim>
					<dim>1500</dim>
					<dim>1280</dim>
				</port>
			</output>
		</layer>
		<layer id="376" name="Constant_21088" type="Const" version="opset1">
			<data element_type="i64" shape="4" offset="14762272" size="32" />
			<output>
				<port id="0" precision="I64">
					<dim>4</dim>
				</port>
			</output>
		</layer>
		<layer id="377" name="__module.layers.3.self_attn/aten::view/Reshape_2" type="Reshape" version="opset1">
			<data special_zero="true" />
			<input>
				<port id="0" precision="FP32">
					<dim>-1</dim>
					<dim>1500</dim>
					<dim>1280</dim>
				</port>
				<port id="1" precision="I64">
					<dim>4</dim>
				</port>
			</input>
			<output>
				<port id="2" precision="FP32" names="441,value_states.7">
					<dim>-1</dim>
					<dim>1500</dim>
					<dim>20</dim>
					<dim>64</dim>
				</port>
			</output>
		</layer>
		<layer id="378" name="__module.layers.3.self_attn/aten::transpose/Constant_2" type="Const" version="opset1">
			<data element_type="i32" shape="4" offset="14762304" size="16" />
			<output>
				<port id="0" precision="I32">
					<dim>4</dim>
				</port>
			</output>
		</layer>
		<layer id="379" name="__module.layers.3.self_attn/aten::transpose/Transpose_2" type="Transpose" version="opset1">
			<input>
				<port id="0" precision="FP32">
					<dim>-1</dim>
					<dim>1500</dim>
					<dim>20</dim>
					<dim>64</dim>
				</port>
				<port id="1" precision="I32">
					<dim>4</dim>
				</port>
			</input>
			<output>
				<port id="2" precision="FP32" names="444">
					<dim>-1</dim>
					<dim>20</dim>
					<dim>1500</dim>
					<dim>64</dim>
				</port>
			</output>
		</layer>
		<layer id="380" name="__module.layers.3.self_attn/aten::scaled_dot_product_attention/ConvertLike" type="Const" version="opset1">
			<data element_type="f32" shape="" offset="18051920" size="4" />
			<output>
				<port id="0" precision="FP32" />
			</output>
		</layer>
		<layer id="381" name="__module.layers.3.self_attn/aten::scaled_dot_product_attention/ConvertLike_1" type="Const" version="opset1">
…
		<edge from-layer="2579" from-port="2" to-layer="2582" to-port="2" />
		<edge from-layer="2580" from-port="0" to-layer="2582" to-port="3" />
		<edge from-layer="2581" from-port="0" to-layer="2582" to-port="4" />
		<edge from-layer="2582" from-port="5" to-layer="2584" to-port="0" />
		<edge from-layer="2583" from-port="0" to-layer="2584" to-port="1" />
		<edge from-layer="2584" from-port="2" to-layer="2586" to-port="0" />
		<edge from-layer="2585" from-port="0" to-layer="2586" to-port="1" />
		<edge from-layer="2586" from-port="2" to-layer="2595" to-port="0" />
		<edge from-layer="2587" from-port="0" to-layer="2588" to-port="0" />
		<edge from-layer="2588" from-port="1" to-layer="2591" to-port="0" />
		<edge from-layer="2589" from-port="0" to-layer="2590" to-port="0" />
		<edge from-layer="2590" from-port="1" to-layer="2591" to-port="1" />
		<edge from-layer="2591" from-port="2" to-layer="2593" to-port="0" />
		<edge from-layer="2592" from-port="0" to-layer="2593" to-port="1" />
		<edge from-layer="2593" from-port="2" to-layer="2594" to-port="0" />
		<edge from-layer="2594" from-port="1" to-layer="2595" to-port="1" />
		<edge from-layer="2595" from-port="2" to-layer="2597" to-port="0" />
		<edge from-layer="2596" from-port="0" to-layer="2597" to-port="1" />
		<edge from-layer="2597" from-port="2" to-layer="2598" to-port="1" />
		<edge from-layer="2598" from-port="2" to-layer="2600" to-port="0" />
		<edge from-layer="2598" from-port="2" to-layer="2628" to-port="0" />
		<edge from-layer="2599" from-port="0" to-layer="2600" to-port="1" />
		<edge from-layer="2600" from-port="2" to-layer="2602" to-port="0" />
		<edge from-layer="2601" from-port="0" to-layer="2602" to-port="1" />
		<edge from-layer="2602" from-port="2" to-layer="2604" to-port="0" />
		<edge from-layer="2603" from-port="0" to-layer="2604" to-port="1" />
		<edge from-layer="2604" from-port="2" to-layer="2613" to-port="0" />
		<edge from-layer="2605" from-port="0" to-layer="2606" to-port="0" />
		<edge from-layer="2606" from-port="1" to-layer="2609" to-port="0" />
		<edge from-layer="2607" from-port="0" to-layer="2608" to-port="0" />
		<edge from-layer="2608" from-port="1" to-layer="2609" to-port="1" />
		<edge from-layer="2609" from-port="2" to-layer="2611" to-port="0" />
		<edge from-layer="2610" from-port="0" to-layer="2611" to-port="1" />
		<edge from-layer="2611" from-port="2" to-layer="2612" to-port="0" />
		<edge from-layer="2612" from-port="1" to-layer="2613" to-port="1" />
		<edge from-layer="2613" from-port="2" to-layer="2615" to-port="0" />
		<edge from-layer="2614" from-port="0" to-layer="2615" to-port="1" />
		<edge from-layer="2615" from-port="2" to-layer="2616" to-port="0" />
		<edge from-layer="2616" from-port="1" to-layer="2625" to-port="0" />
		<edge from-layer="2617" from-port="0" to-layer="2618" to-port="0" />
		<edge from-layer="2618" from-port="1" to-layer="2621" to-port="0" />
		<edge from-layer="2619" from-port="0" to-layer="2620" to-port="0" />
		<edge from-layer="2620" from-port="1" to-layer="2621" to-port="1" />
		<edge from-layer="2621" from-port="2" to-layer="2623" to-port="0" />
		<edge from-layer="2622" from-port="0" to-layer="2623" to-port="1" />
		<edge from-layer="2623" from-port="2" to-layer="2624" to-port="0" />
		<edge from-layer="2624" from-port="1" to-layer="2625" to-port="1" />
		<edge from-layer="2625" from-port="2" to-layer="2627" to-port="0" />
		<edge from-layer="2626" from-port="0" to-layer="2627" to-port="1" />
		<edge from-layer="2627" from-port="2" to-layer="2628" to-port="1" />
		<edge from-layer="2628" from-port="2" to-layer="2630" to-port="0" />
		<edge from-layer="2628" from-port="2" to-layer="2698" to-port="0" />
		<edge from-layer="2629" from-port="0" to-layer="2630" to-port="1" />
		<edge from-layer="2630" from-port="2" to-layer="2632" to-port="0" />
		<edge from-layer="2631" from-port="0" to-layer="2632" to-port="1" />
		<edge from-layer="2632" from-port="2" to-layer="2634" to-port="0" />
		<edge from-layer="2633" from-port="0" to-layer="2634" to-port="1" />
		<edge from-layer="2634" from-port="2" to-layer="2643" to-port="0" />
		<edge from-layer="2634" from-port="2" to-layer="2660" to-port="0" />
		<edge from-layer="2634" from-port="2" to-layer="2673" to-port="0" />
		<edge from-layer="2635" from-port="0" to-layer="2636" to-port="0" />
		<edge from-layer="2636" from-port="1" to-layer="2639" to-port="0" />
		<edge from-layer="2637" from-port="0" to-layer="2638" to-port="0" />
		<edge from-layer="2638" from-port="1" to-layer="2639" to-port="1" />
		<edge from-layer="2639" from-port="2" to-layer="2641" to-port="0" />
		<edge from-layer="2640" from-port="0" to-layer="2641" to-port="1" />
		<edge from-layer="2641" from-port="2" to-layer="2642" to-port="0" />
		<edge from-layer="2642" from-port="1" to-layer="2643" to-port="1" />
		<edge from-layer="2643" from-port="2" to-layer="2645" to-port="0" />
		<edge from-layer="2644" from-port="0" to-layer="2645" to-port="1" />
		<edge from-layer="2645" from-port="2" to-layer="2647" to-port="0" />
		<edge from-layer="2646" from-port="0" to-layer="2647" to-port="1" />
		<edge from-layer="2647" from-port="2" to-layer="2649" to-port="0" />
		<edge from-layer="2648" from-port="0" to-layer="2649" to-port="1" />
		<edge from-layer="2649" from-port="2" to-layer="2651" to-port="0" />
		<edge from-layer="2650" from-port="0" to-layer="2651" to-port="1" />
		<edge from-layer="2651" from-port="2" to-layer="2682" to-port="0" />
		<edge from-layer="2652" from-port="0" to-layer="2653" to-port="0" />
		<edge from-layer="2653" from-port="1" to-layer="2656" to-port="0" />
		<edge from-layer="2654" from-port="0" to-layer="2655" to-port="0" />
		<edge from-layer="2655" from-port="1" to-layer="2656" to-port="1" />
		<edge from-layer="2656" from-port="2" to-layer="2658" to-port="0" />
		<edge from-layer="2657" from-port="0" to-layer="2658" to-port="1" />
		<edge from-layer="2658" from-port="2" to-layer="2659" to-port="0" />
		<edge from-layer="2659" from-port="1" to-layer="2660" to-port="1" />
		<edge from-layer="2660" from-port="2" to-layer="2662" to-port="0" />
		<edge from-layer="2661" from-port="0" to-layer="2662" to-port="1" />
		<edge from-layer="2662" from-port="2" to-layer="2664" to-port="0" />
		<edge from-layer="2663" from-port="0" to-layer="2664" to-port="1" />
		<edge from-layer="2664" from-port="2" to-layer="2682" to-port="1" />
		<edge from-layer="2665" from-port="0" to-layer="2666" to-port="0" />
		<edge from-layer="2666" from-port="1" to-layer="2669" to-port="0" />
		<edge from-layer="2667" from-port="0" to-layer="2668" to-port="0" />
		<edge from-layer="2668" from-port="1" to-layer="2669" to-port="1" />
		<edge from-layer="2669" from-port="2" to-layer="2671" to-port="0" />
		<edge from-layer="2670" from-port="0" to-layer="2671" to-port="1" />
		<edge from-layer="2671" from-port="2" to-layer="2672" to-port="0" />
		<edge from-layer="2672" from-port="1" to-layer="2673" to-port="1" />
		<edge from-layer="2673" from-port="2" to-layer="2675" to-port="0" />
		<edge from-layer="2674" from-port="0" to-layer="2675" to-port="1" />
		<edge from-layer="2675" from-port="2" to-layer="2677" to-port="0" />
		<edge from-layer="2676" from-port="0" to-layer="2677" to-port="1" />
		<edge from-layer="2677" from-port="2" to-layer="2679" to-port="0" />
		<edge from-layer="2678" from-port="0" to-layer="2679" to-port="1" />
		<edge from-layer="2679" from-port="2" to-layer="2682" to-port="2" />
		<edge from-layer="2680" from-port="0" to-layer="2682" to-port="3" />
		<edge from-layer="2681" from-port="0" to-layer="2682" to-port="4" />
		<edge from-layer="2682" from-port="5" to-layer="2684" to-port="0" />
		<edge from-layer="2683" from-port="0" to-layer="2684" to-port="1" />
		<edge from-layer="2684" from-port="2" to-layer="2686" to-port="0" />
		<edge from-layer="2685" from-port="0" to-layer="2686" to-port="1" />
		<edge from-layer="2686" from-port="2" to-layer="2695" to-port="0" />
		<edge from-layer="2687" from-port="0" to-layer="2688" to-port="0" />
		<edge from-layer="2688" from-port="1" to-layer="2691" to-port="0" />
		<edge from-layer="2689" from-port="0" to-layer="2690" to-port="0" />
		<edge from-layer="2690" from-port="1" to-layer="2691" to-port="1" />
		<edge from-layer="2691" from-port="2" to-layer="2693" to-port="0" />
		<edge from-layer="2692" from-port="0" to-layer="2693" to-port="1" />
		<edge from-layer="2693" from-port="2" to-layer="2694" to-port="0" />
		<edge from-layer="2694" from-port="1" to-layer="2695" to-port="1" />
		<edge from-layer="2695" from-port="2" to-layer="2697" to-port="0" />
		<edge from-layer="2696" from-port="0" to-layer="2697" to-port="1" />
		<edge from-layer="2697" from-port="2" to-layer="2698" to-port="1" />
		<edge from-layer="2698" from-port="2" to-layer="2700" to-port="0" />
		<edge from-layer="2698" from-port="2" to-layer="2728" to-port="0" />
		<edge from-layer="2699" from-port="0" to-layer="2700" to-port="1" />
		<edge from-layer="2700" from-port="2" to-layer="2702" to-port="0" />
		<edge from-layer="2701" from-port="0" to-layer="2702" to-port="1" />
		<edge from-layer="2702" from-port="2" to-layer="2704" to-port="0" />
		<edge from-layer="2703" from-port="0" to-layer="2704" to-port="1" />
		<edge from-layer="2704" from-port="2" to-layer="2713" to-port="0" />
		<edge from-layer="2705" from-port="0" to-layer="2706" to-port="0" />
		<edge from-layer="2706" from-port="1" to-layer="2709" to-port="0" />
		<edge from-layer="2707" from-port="0" to-layer="2708" to-port="0" />
		<edge from-layer="2708" from-port="1" to-layer="2709" to-port="1" />
		<edge from-layer="2709" from-port="2" to-layer="2711" to-port="0" />
		<edge from-layer="2710" from-port="0" to-layer="2711" to-port="1" />
		<edge from-layer="2711" from-port="2" to-layer="2712" to-port="0" />
		<edge from-layer="2712" from-port="1" to-layer="2713" to-port="1" />
		<edge from-layer="2713" from-port="2" to-layer="2715" to-port="0" />
		<edge from-layer="2714" from-port="0" to-layer="2715" to-port="1" />
		<edge from-layer="2715" from-port="2" to-layer="2716" to-port="0" />
		<edge from-layer="2716" from-port="1" to-layer="2725" to-port="0" />
		<edge from-layer="2717" from-port="0" to-layer="2718" to-port="0" />
		<edge from-layer="2718" from-port="1" to-layer="2721" to-port="0" />
		<edge from-layer="2719" from-port="0" to-layer="2720" to-port="0" />
		<edge from-layer="2720" from-port="1" to-layer="2721" to-port="1" />
		<edge from-layer="2721" from-port="2" to-layer="2723" to-port="0" />
		<edge from-layer="2722" from-port="0" to-layer="2723" to-port="1" />
		<edge from-layer="2723" from-port="2" to-layer="2724" to-port="0" />
		<edge from-layer="2724" from-port="1" to-layer="2725" to-port="1" />
		<edge from-layer="2725" from-port="2" to-layer="2727" to-port="0" />
		<edge from-layer="2726" from-port="0" to-layer="2727" to-port="1" />
		<edge from-layer="2727" from-port="2" to-layer="2728" to-port="1" />
		<edge from-layer="2728" from-port="2" to-layer="2730" to-port="0" />
		<edge from-layer="2728" from-port="2" to-layer="2798" to-port="0" />
		<edge from-layer="2729" from-port="0" to-layer="2730" to-port="1" />
		<edge from-layer="2730" from-port="2" to-layer="2732" to-port="0" />
		<edge from-layer="2731" from-port="0" to-layer="2732" to-port="1" />
		<edge from-layer="2732" from-port="2" to-layer="2734" to-port="0" />
		<edge from-layer="2733" from-port="0" to-layer="2734" to-port="1" />
		<edge from-layer="2734" from-port="2" to-layer="2760" to-port="0" />
		<edge from-layer="2734" from-port="2" to-layer="2743" to-port="0" />
		<edge from-layer="2734" from-port="2" to-layer="2773" to-port="0" />
		<edge from-layer="2735" from-port="0" to-layer="2736" to-port="0" />
		<edge from-layer="2736" from-port="1" to-layer="2739" to-port="0" />
		<edge from-layer="2737" from-port="0" to-layer="2738" to-port="0" />
		<edge from-layer="2738" from-port="1" to-layer="2739" to-port="1" />
		<edge from-layer="2739" from-port="2" to-layer="2741" to-port="0" />
		<edge from-layer="2740" from-port="0" to-layer="2741" to-port="1" />
		<edge from-layer="2741" from-port="2" to-layer="2742" to-port="0" />
		<edge from-layer="2742" from-port="1" to-layer="2743" to-port="1" />
		<edge from-layer="2743" from-port="2" to-layer="2745" to-port="0" />
		<edge from-layer="2744" from-port="0" to-layer="2745" to-port="1" />
		<edge from-layer="2745" from-port="2" to-layer="2747" to-port="0" />
		<edge from-layer="2746" from-port="0" to-layer="2747" to-port="1" />
		<edge from-layer="2747" from-port="2" to-layer="2749" to-port="0" />
		<edge from-layer="2748" from-port="0" to-layer="2749" to-port="1" />
		<edge from-layer="2749" from-port="2" to-layer="2751" to-port="0" />
		<edge from-layer="2750" from-port="0" to-layer="2751" to-port="1" />
		<edge from-layer="2751" from-port="2" to-layer="2782" to-port="0" />
		<edge from-layer="2752" from-port="0" to-layer="2753" to-port="0" />
		<edge from-layer="2753" from-port="1" to-layer="2756" to-port="0" />
		<edge from-layer="2754" from-port="0" to-layer="2755" to-port="0" />
		<edge from-layer="2755" from-port="1" to-layer="2756" to-port="1" />
		<edge from-layer="2756" from-port="2" to-layer="2758" to-port="0" />
		<edge from-layer="2757" from-port="0" to-layer="2758" to-port="1" />
		<edge from-layer="2758" from-port="2" to-layer="2759" to-port="0" />
		<edge from-layer="2759" from-port="1" to-layer="2760" to-port="1" />
		<edge from-layer="2760" from-port="2" to-layer="2762" to-port="0" />
		<edge from-layer="2761" from-port="0" to-layer="2762" to-port="1" />
		<edge from-layer="2762" from-port="2" to-layer="2764" to-port="0" />
		<edge from-layer="2763" from-port="0" to-layer="2764" to-port="1" />
		<edge from-layer="2764" from-port="2" to-layer="2782" to-port="1" />
		<edge from-layer="2765" from-port="0" to-layer="2766" to-port="0" />
		<edge from-layer="2766" from-port="1" to-layer="2769" to-port="0" />
		<edge from-layer="2767" from-port="0" to-layer="2768" to-port="0" />
		<edge from-layer="2768" from-port="1" to-layer="2769" to-port="1" />
		<edge from-layer="2769" from-port="2" to-layer="2771" to-port="0" />
		<edge from-layer="2770" from-port="0" to-layer="2771" to-port="1" />
		<edge from-layer="2771" from-port="2" to-layer="2772" to-port="0" />
		<edge from-layer="2772" from-port="1" to-layer="2773" to-port="1" />
		<edge from-layer="2773" from-port="2" to-layer="2775" to-port="0" />
		<edge from-layer="2774" from-port="0" to-layer="2775" to-port="1" />
		<edge from-layer="2775" from-port="2" to-layer="2777" to-port="0" />
		<edge from-layer="2776" from-port="0" to-layer="2777" to-port="1" />
		<edge from-layer="2777" from-port="2" to-layer="2779" to-port="0" />
		<edge from-layer="2778" from-port="0" to-layer="2779" to-port="1" />
		<edge from-layer="2779" from-port="2" to-layer="2782" to-port="2" />
		<edge from-layer="2780" from-port="0" to-layer="2782" to-port="3" />
		<edge from-layer="2781" from-port="0" to-layer="2782" to-port="4" />
		<edge from-layer="2782" from-port="5" to-layer="2784" to-port="0" />
		<edge from-layer="2783" from-port="0" to-layer="2784" to-port="1" />
		<edge from-layer="2784" from-port="2" to-layer="2786" to-port="0" />
		<edge from-layer="2785" from-port="0" to-layer="2786" to-port="1" />
		<edge from-layer="2786" from-port="2" to-layer="2795" to-port="0" />
		<edge from-layer="2787" from-port="0" to-layer="2788" to-port="0" />
		<edge from-layer="2788" from-port="1" to-layer="2791" to-port="0" />
		<edge from-layer="2789" from-port="0" to-layer="2790" to-port="0" />
		<edge from-layer="2790" from-port="1" to-layer="2791" to-port="1" />
		<edge from-layer="2791" from-port="2" to-layer="2793" to-port="0" />
		<edge from-layer="2792" from-port="0" to-layer="2793" to-port="1" />
		<edge from-layer="2793" from-port="2" to-layer="2794" to-port="0" />
		<edge from-layer="2794" from-port="1" to-layer="2795" to-port="1" />
		<edge from-layer="2795" from-port="2" to-layer="2797" to-port="0" />
		<edge from-layer="2796" from-port="0" to-layer="2797" to-port="1" />
		<edge from-layer="2797" from-port="2" to-layer="2798" to-port="1" />
		<edge from-layer="2798" from-port="2" to-layer="2800" to-port="0" />
		<edge from-layer="2798" from-port="2" to-layer="2828" to-port="0" />
		<edge from-layer="2799" from-port="0" to-layer="2800" to-port="1" />
		<edge from-layer="2800" from-port="2" to-layer="2802" to-port="0" />
		<edge from-layer="2801" from-port="0" to-layer="2802" to-port="1" />
		<edge from-layer="2802" from-port="2" to-layer="2804" to-port="0" />
		<edge from-layer="2803" from-port="0" to-layer="2804" to-port="1" />
		<edge from-layer="2804" from-port="2" to-layer="2813" to-port="0" />
		<edge from-layer="2805" from-port="0" to-layer="2806" to-port="0" />
		<edge from-layer="2806" from-port="1" to-layer="2809" to-port="0" />
		<edge from-layer="2807" from-port="0" to-layer="2808" to-port="0" />
		<edge from-layer="2808" from-port="1" to-layer="2809" to-port="1" />
		<edge from-layer="2809" from-port="2" to-layer="2811" to-port="0" />
		<edge from-layer="2810" from-port="0" to-layer="2811" to-port="1" />
		<edge from-layer="2811" from-port="2" to-layer="2812" to-port="0" />
		<edge from-layer="2812" from-port="1" to-layer="2813" to-port="1" />
		<edge from-layer="2813" from-port="2" to-layer="2815" to-port="0" />
		<edge from-layer="2814" from-port="0" to-layer="2815" to-port="1" />
		<edge from-layer="2815" from-port="2" to-layer="2816" to-port="0" />
		<edge from-layer="2816" from-port="1" to-layer="2825" to-port="0" />
		<edge from-layer="2817" from-port="0" to-layer="2818" to-port="0" />
		<edge from-layer="2818" from-port="1" to-layer="2821" to-port="0" />
		<edge from-layer="2819" from-port="0" to-layer="2820" to-port="0" />
		<edge from-layer="2820" from-port="1" to-layer="2821" to-port="1" />
		<edge from-layer="2821" from-port="2" to-layer="2823" to-port="0" />
		<edge from-layer="2822" from-port="0" to-layer="2823" to-port="1" />
		<edge from-layer="2823" from-port="2" to-layer="2824" to-port="0" />
		<edge from-layer="2824" from-port="1" to-layer="2825" to-port="1" />
		<edge from-layer="2825" from-port="2" to-layer="2827" to-port="0" />
		<edge from-layer="2826" from-port="0" to-layer="2827" to-port="1" />
		<edge from-layer="2827" from-port="2" to-layer="2828" to-port="1" />
		<edge from-layer="2828" from-port="2" to-layer="2830" to-port="0" />
		<edge from-layer="2828" from-port="2" to-layer="2898" to-port="0" />
		<edge from-layer="2829" from-port="0" to-layer="2830" to-port="1" />
		<edge from-layer="2830" from-port="2" to-layer="2832" to-port="0" />
		<edge from-layer="2831" from-port="0" to-layer="2832" to-port="1" />
		<edge from-layer="2832" from-port="2" to-layer="2834" to-port="0" />
		<edge from-layer="2833" from-port="0" to-layer="2834" to-port="1" />
		<edge from-layer="2834" from-port="2" to-layer="2843" to-port="0" />
		<edge from-layer="2834" from-port="2" to-layer="2860" to-port="0" />
		<edge from-layer="2834" from-port="2" to-layer="2873" to-port="0" />
		<edge from-layer="2835" from-port="0" to-layer="2836" to-port="0" />
		<edge from-layer="2836" from-port="1" to-layer="2839" to-port="0" />
		<edge from-layer="2837" from-port="0" to-layer="2838" to-port="0" />
		<edge from-layer="2838" from-port="1" to-layer="2839" to-port="1" />
		<edge from-layer="2839" from-port="2" to-layer="2841" to-port="0" />
		<edge from-layer="2840" from-port="0" to-layer="2841" to-port="1" />
		<edge from-layer="2841" from-port="2" to-layer="2842" to-port="0" />
		<edge from-layer="2842" from-port="1" to-layer="2843" to-port="1" />
		<edge from-layer="2843" from-port="2" to-layer="2845" to-port="0" />
		<edge from-layer="2844" from-port="0" to-layer="2845" to-port="1" />
		<edge from-layer="2845" from-port="2" to-layer="2847" to-port="0" />
		<edge from-layer="2846" from-port="0" to-layer="2847" to-port="1" />
		<edge from-layer="2847" from-port="2" to-layer="2849" to-port="0" />
		<edge from-layer="2848" from-port="0" to-layer="2849" to-port="1" />
		<edge from-layer="2849" from-port="2" to-layer="2851" to-port="0" />
		<edge from-layer="2850" from-port="0" to-layer="2851" to-port="1" />
		<edge from-layer="2851" from-port="2" to-layer="2882" to-port="0" />
		<edge from-layer="2852" from-port="0" to-layer="2853" to-port="0" />
		<edge from-layer="2853" from-port="1" to-layer="2856" to-port="0" />
		<edge from-layer="2854" from-port="0" to-layer="2855" to-port="0" />
		<edge from-layer="2855" from-port="1" to-layer="2856" to-port="1" />
		<edge from-layer="2856" from-port="2" to-layer="2858" to-port="0" />
		<edge from-layer="2857" from-port="0" to-layer="2858" to-port="1" />
		<edge from-layer="2858" from-port="2" to-layer="2859" to-port="0" />
		<edge from-layer="2859" from-port="1" to-layer="2860" to-port="1" />
		<edge from-layer="2860" from-port="2" to-layer="2862" to-port="0" />
		<edge from-layer="2861" from-port="0" to-layer="2862" to-port="1" />
		<edge from-layer="2862" from-port="2" to-layer="2864" to-port="0" />
		<edge from-layer="2863" from-port="0" to-layer="2864" to-port="1" />
		<edge from-layer="2864" from-port="2" to-layer="2882" to-port="1" />
		<edge from-layer="2865" from-port="0" to-layer="2866" to-port="0" />
		<edge from-layer="2866" from-port="1" to-layer="2869" to-port="0" />
		<edge from-layer="2867" from-port="0" to-layer="2868" to-port="0" />
		<edge from-layer="2868" from-port="1" to-layer="2869" to-port="1" />
		<edge from-layer="2869" from-port="2" to-layer="2871" to-port="0" />
		<edge from-layer="2870" from-port="0" to-layer="2871" to-port="1" />
		<edge from-layer="2871" from-port="2" to-layer="2872" to-port="0" />
		<edge from-layer="2872" from-port="1" to-layer="2873" to-port="1" />
		<edge from-layer="2873" from-port="2" to-layer="2875" to-port="0" />
		<edge from-layer="2874" from-port="0" to-layer="2875" to-port="1" />
		<edge from-layer="2875" from-port="2" to-layer="2877" to-port="0" />
		<edge from-layer="2876" from-port="0" to-layer="2877" to-port="1" />
		<edge from-layer="2877" from-port="2" to-layer="2879" to-port="0" />
		<edge from-layer="2878" from-port="0" to-layer="2879" to-port="1" />
		<edge from-layer="2879" from-port="2" to-layer="2882" to-port="2" />
		<edge from-layer="2880" from-port="0" to-layer="2882" to-port="3" />
		<edge from-layer="2881" from-port="0" to-layer="2882" to-port="4" />
		<edge from-layer="2882" from-port="5" to-layer="2884" to-port="0" />
		<edge from-layer="2883" from-port="0" to-layer="2884" to-port="1" />
		<edge from-layer="2884" from-port="2" to-layer="2886" to-port="0" />
		<edge from-layer="2885" from-port="0" to-layer="2886" to-port="1" />
		<edge from-layer="2886" from-port="2" to-layer="2895" to-port="0" />
		<edge from-layer="2887" from-port="0" to-layer="2888" to-port="0" />
		<edge from-layer="2888" from-port="1" to-layer="2891" to-port="0" />
		<edge from-layer="2889" from-port="0" to-layer="2890" to-port="0" />
		<edge from-layer="2890" from-port="1" to-layer="2891" to-port="1" />
		<edge from-layer="2891" from-port="2" to-layer="2893" to-port="0" />
		<edge from-layer="2892" from-port="0" to-layer="2893" to-port="1" />
		<edge from-layer="2893" from-port="2" to-layer="2894" to-port="0" />
		<edge from-layer="2894" from-port="1" to-layer="2895" to-port="1" />
		<edge from-layer="2895" from-port="2" to-layer="2897" to-port="0" />
		<edge from-layer="2896" from-port="0" to-layer="2897" to-port="1" />
		<edge from-layer="2897" from-port="2" to-layer="2898" to-port="1" />
		<edge from-layer="2898" from-port="2" to-layer="2900" to-port="0" />
		<edge from-layer="2898" from-port="2" to-layer="2928" to-port="0" />
		<edge from-layer="2899" from-port="0" to-layer="2900" to-port="1" />
		<edge from-layer="2900" from-port="2" to-layer="2902" to-port="0" />
		<edge from-layer="2901" from-port="0" to-layer="2902" to-port="1" />
		<edge from-layer="2902" from-port="2" to-layer="2904" to-port="0" />
		<edge from-layer="2903" from-port="0" to-layer="2904" to-port="1" />
		<edge from-layer="2904" from-port="2" to-layer="2913" to-port="0" />
		<edge from-layer="2905" from-port="0" to-layer="2906" to-port="0" />
		<edge from-layer="2906" from-port="1" to-layer="2909" to-port="0" />
		<edge from-layer="2907" from-port="0" to-layer="2908" to-port="0" />
		<edge from-layer="2908" from-port="1" to-layer="2909" to-port="1" />
		<edge from-layer="2909" from-port="2" to-layer="2911" to-port="0" />
		<edge from-layer="2910" from-port="0" to-layer="2911" to-port="1" />
		<edge from-layer="2911" from-port="2" to-layer="2912" to-port="0" />
		<edge from-layer="2912" from-port="1" to-layer="2913" to-port="1" />
		<edge from-layer="2913" from-port="2" to-layer="2915" to-port="0" />
		<edge from-layer="2914" from-port="0" to-layer="2915" to-port="1" />
		<edge from-layer="2915" from-port="2" to-layer="2916" to-port="0" />
		<edge from-layer="2916" from-port="1" to-layer="2925" to-port="0" />
		<edge from-layer="2917" from-port="0" to-layer="2918" to-port="0" />
		<edge from-layer="2918" from-port="1" to-layer="2921" to-port="0" />
		<edge from-layer="2919" from-port="0" to-layer="2920" to-port="0" />
		<edge from-layer="2920" from-port="1" to-layer="2921" to-port="1" />
		<edge from-layer="2921" from-port="2" to-layer="2923" to-port="0" />
		<edge from-layer="2922" from-port="0" to-layer="2923" to-port="1" />
		<edge from-layer="2923" from-port="2" to-layer="2924" to-port="0" />
		<edge from-layer="2924" from-port="1" to-layer="2925" to-port="1" />
		<edge from-layer="2925" from-port="2" to-layer="2927" to-port="0" />
		<edge from-layer="2926" from-port="0" to-layer="2927" to-port="1" />
		<edge from-layer="2927" from-port="2" to-layer="2928" to-port="1" />
		<edge from-layer="2928" from-port="2" to-layer="2930" to-port="0" />
		<edge from-layer="2928" from-port="2" to-layer="2998" to-port="0" />
		<edge from-layer="2929" from-port="0" to-layer="2930" to-port="1" />
		<edge from-layer="2930" from-port="2" to-layer="2932" to-port="0" />
		<edge from-layer="2931" from-port="0" to-layer="2932" to-port="1" />
		<edge from-layer="2932" from-port="2" to-layer="2934" to-port="0" />
		<edge from-layer="2933" from-port="0" to-layer="2934" to-port="1" />
		<edge from-layer="2934" from-port="2" to-layer="2943" to-port="0" />
		<edge from-layer="2934" from-port="2" to-layer="2960" to-port="0" />
		<edge from-layer="2934" from-port="2" to-layer="2973" to-port="0" />
		<edge from-layer="2935" from-port="0" to-layer="2936" to-port="0" />
		<edge from-layer="2936" from-port="1" to-layer="2939" to-port="0" />
		<edge from-layer="2937" from-port="0" to-layer="2938" to-port="0" />
		<edge from-layer="2938" from-port="1" to-layer="2939" to-port="1" />
		<edge from-layer="2939" from-port="2" to-layer="2941" to-port="0" />
		<edge from-layer="2940" from-port="0" to-layer="2941" to-port="1" />
		<edge from-layer="2941" from-port="2" to-layer="2942" to-port="0" />
		<edge from-layer="2942" from-port="1" to-layer="2943" to-port="1" />
		<edge from-layer="2943" from-port="2" to-layer="2945" to-port="0" />
		<edge from-layer="2944" from-port="0" to-layer="2945" to-port="1" />
		<edge from-layer="2945" from-port="2" to-layer="2947" to-port="0" />
		<edge from-layer="2946" from-port="0" to-layer="2947" to-port="1" />
		<edge from-layer="2947" from-port="2" to-layer="2949" to-port="0" />
		<edge from-layer="2948" from-port="0" to-layer="2949" to-port="1" />
		<edge from-layer="2949" from-port="2" to-layer="2951" to-port="0" />
		<edge from-layer="2950" from-port="0" to-layer="2951" to-port="1" />
		<edge from-layer="2951" from-port="2" to-layer="2982" to-port="0" />
		<edge from-layer="2952" from-port="0" to-layer="2953" to-port="0" />
		<edge from-layer="2953" from-port="1" to-layer="2956" to-port="0" />
		<edge from-layer="2954" from-port="0" to-layer="2955" to-port="0" />
		<edge from-layer="2955" from-port="1" to-layer="2956" to-port="1" />
		<edge from-layer="2956" from-port="2" to-layer="2958" to-port="0" />
		<edge from-layer="2957" from-port="0" to-layer="2958" to-port="1" />
		<edge from-layer="2958" from-port="2" to-layer="2959" to-port="0" />
		<edge from-layer="2959" from-port="1" to-layer="2960" to-port="1" />
		<edge from-layer="2960" from-port="2" to-layer="2962" to-port="0" />
		<edge from-layer="2961" from-port="0" to-layer="2962" to-port="1" />
		<edge from-layer="2962" from-port="2" to-layer="2964" to-port="0" />
		<edge from-layer="2963" from-port="0" to-layer="2964" to-port="1" />
		<edge from-layer="2964" from-port="2" to-layer="2982" to-port="1" />
		<edge from-layer="2965" from-port="0" to-layer="2966" to-port="0" />
		<edge from-layer="2966" from-port="1" to-layer="2969" to-port="0" />
		<edge from-layer="2967" from-port="0" to-layer="2968" to-port="0" />
		<edge from-layer="2968" from-port="1" to-layer="2969" to-port="1" />
		<edge from-layer="2969" from-port="2" to-layer="2971" to-port="0" />
		<edge from-layer="2970" from-port="0" to-layer="2971" to-port="1" />
		<edge from-layer="2971" from-port="2" to-layer="2972" to-port="0" />
		<edge from-layer="2972" from-port="1" to-layer="2973" to-port="1" />
		<edge from-layer="2973" from-port="2" to-layer="2975" to-port="0" />
		<edge from-layer="2974" from-port="0" to-layer="2975" to-port="1" />
		<edge from-layer="2975" from-port="2" to-layer="2977" to-port="0" />
		<edge from-layer="2976" from-port="0" to-layer="2977" to-port="1" />
		<edge from-layer="2977" from-port="2" to-layer="2979" to-port="0" />
		<edge from-layer="2978" from-port="0" to-layer="2979" to-port="1" />
		<edge from-layer="2979" from-port="2" to-layer="2982" to-port="2" />
		<edge from-layer="2980" from-port="0" to-layer="2982" to-port="3" />
		<edge from-layer="2981" from-port="0" to-layer="2982" to-port="4" />
		<edge from-layer="2982" from-port="5" to-layer="2984" to-port="0" />
		<edge from-layer="2983" from-port="0" to-layer="2984" to-port="1" />
		<edge from-layer="2984" from-port="2" to-layer="2986" to-port="0" />
		<edge from-layer="2985" from-port="0" to-layer="2986" to-port="1" />
		<edge from-layer="2986" from-port="2" to-layer="2995" to-port="0" />
		<edge from-layer="2987" from-port="0" to-layer="2988" to-port="0" />
		<edge from-layer="2988" from-port="1" to-layer="2991" to-port="0" />
		<edge from-layer="2989" from-port="0" to-layer="2990" to-port="0" />
		<edge from-layer="2990" from-port="1" to-layer="2991" to-port="1" />
		<edge from-layer="2991" from-port="2" to-layer="2993" to-port="0" />
		<edge from-layer="2992" from-port="0" to-layer="2993" to-port="1" />
		<edge from-layer="2993" from-port="2" to-layer="2994" to-port="0" />
		<edge from-layer="2994" from-port="1" to-layer="2995" to-port="1" />
		<edge from-layer="2995" from-port="2" to-layer="2997" to-port="0" />
		<edge from-layer="2996" from-port="0" to-layer="2997" to-port="1" />
		<edge from-layer="2997" from-port="2" to-layer="2998" to-port="1" />
		<edge from-layer="2998" from-port="2" to-layer="3000" to-port="0" />
		<edge from-layer="2998" from-port="2" to-layer="3028" to-port="0" />
		<edge from-layer="2999" from-port="0" to-layer="3000" to-port="1" />
		<edge from-layer="3000" from-port="2" to-layer="3002" to-port="0" />
		<edge from-layer="3001" from-port="0" to-layer="3002" to-port="1" />
		<edge from-layer="3002" from-port="2" to-layer="3004" to-port="0" />
		<edge from-layer="3003" from-port="0" to-layer="3004" to-port="1" />
		<edge from-layer="3004" from-port="2" to-layer="3013" to-port="0" />
		<edge from-layer="3005" from-port="0" to-layer="3006" to-port="0" />
		<edge from-layer="3006" from-port="1" to-layer="3009" to-port="0" />
		<edge from-layer="3007" from-port="0" to-layer="3008" to-port="0" />
		<edge from-layer="3008" from-port="1" to-layer="3009" to-port="1" />
		<edge from-layer="3009" from-port="2" to-layer="3011" to-port="0" />
		<edge from-layer="3010" from-port="0" to-layer="3011" to-port="1" />
		<edge from-layer="3011" from-port="2" to-layer="3012" to-port="0" />
		<edge from-layer="3012" from-port="1" to-layer="3013" to-port="1" />
		<edge from-layer="3013" from-port="2" to-layer="3015" to-port="0" />
		<edge from-layer="3014" from-port="0" to-layer="3015" to-port="1" />
		<edge from-layer="3015" from-port="2" to-layer="3016" to-port="0" />
		<edge from-layer="3016" from-port="1" to-layer="3025" to-port="0" />
		<edge from-layer="3017" from-port="0" to-layer="3018" to-port="0" />
		<edge from-layer="3018" from-port="1" to-layer="3021" to-port="0" />
		<edge from-layer="3019" from-port="0" to-layer="3020" to-port="0" />
		<edge from-layer="3020" from-port="1" to-layer="3021" to-port="1" />
		<edge from-layer="3021" from-port="2" to-layer="3023" to-port="0" />
		<edge from-layer="3022" from-port="0" to-layer="3023" to-port="1" />
		<edge from-layer="3023" from-port="2" to-layer="3024" to-port="0" />
		<edge from-layer="3024" from-port="1" to-layer="3025" to-port="1" />
		<edge from-layer="3025" from-port="2" to-layer="3027" to-port="0" />
		<edge from-layer="3026" from-port="0" to-layer="3027" to-port="1" />
		<edge from-layer="3027" from-port="2" to-layer="3028" to-port="1" />
		<edge from-layer="3028" from-port="2" to-layer="3030" to-port="0" />
		<edge from-layer="3028" from-port="2" to-layer="3098" to-port="0" />
		<edge from-layer="3029" from-port="0" to-layer="3030" to-port="1" />
		<edge from-layer="3030" from-port="2" to-layer="3032" to-port="0" />
		<edge from-layer="3031" from-port="0" to-layer="3032" to-port="1" />
		<edge from-layer="3032" from-port="2" to-layer="3034" to-port="0" />
		<edge from-layer="3033" from-port="0" to-layer="3034" to-port="1" />
		<edge from-layer="3034" from-port="2" to-layer="3043" to-port="0" />
		<edge from-layer="3034" from-port="2" to-layer="3060" to-port="0" />
		<edge from-layer="3034" from-port="2" to-layer="3073" to-port="0" />
		<edge from-layer="3035" from-port="0" to-layer="3036" to-port="0" />
		<edge from-layer="3036" from-port="1" to-layer="3039" to-port="0" />
		<edge from-layer="3037" from-port="0" to-layer="3038" to-port="0" />
		<edge from-layer="3038" from-port="1" to-layer="3039" to-port="1" />
		<edge from-layer="3039" from-port="2" to-layer="3041" to-port="0" />
		<edge from-layer="3040" from-port="0" to-layer="3041" to-port="1" />
		<edge from-layer="3041" from-port="2" to-layer="3042" to-port="0" />
		<edge from-layer="3042" from-port="1" to-layer="3043" to-port="1" />
		<edge from-layer="3043" from-port="2" to-layer="3045" to-port="0" />
		<edge from-layer="3044" from-port="0" to-layer="3045" to-port="1" />
		<edge from-layer="3045" from-port="2" to-layer="3047" to-port="0" />
		<edge from-layer="3046" from-port="0" to-layer="3047" to-port="1" />
		<edge from-layer="3047" from-port="2" to-layer="3049" to-port="0" />
		<edge from-layer="3048" from-port="0" to-layer="3049" to-port="1" />
		<edge from-layer="3049" from-port="2" to-layer="3051" to-port="0" />
		<edge from-layer="3050" from-port="0" to-layer="3051" to-port="1" />
		<edge from-layer="3051" from-port="2" to-layer="3082" to-port="0" />
		<edge from-layer="3052" from-port="0" to-layer="3053" to-port="0" />
		<edge from-layer="3053" from-port="1" to-layer="3056" to-port="0" />
		<edge from-layer="3054" from-port="0" to-layer="3055" to-port="0" />
		<edge from-layer="3055" from-port="1" to-layer="3056" to-port="1" />
		<edge from-layer="3056" from-port="2" to-layer="3058" to-port="0" />
		<edge from-layer="3057" from-port="0" to-layer="3058" to-port="1" />
		<edge from-layer="3058" from-port="2" to-layer="3059" to-port="0" />
		<edge from-layer="3059" from-port="1" to-layer="3060" to-port="1" />
		<edge from-layer="3060" from-port="2" to-layer="3062" to-port="0" />
		<edge from-layer="3061" from-port="0" to-layer="3062" to-port="1" />
		<edge from-layer="3062" from-port="2" to-layer="3064" to-port="0" />
		<edge from-layer="3063" from-port="0" to-layer="3064" to-port="1" />
		<edge from-layer="3064" from-port="2" to-layer="3082" to-port="1" />
		<edge from-layer="3065" from-port="0" to-layer="3066" to-port="0" />
		<edge from-layer="3066" from-port="1" to-layer="3069" to-port="0" />
		<edge from-layer="3067" from-port="0" to-layer="3068" to-port="0" />
		<edge from-layer="3068" from-port="1" to-layer="3069" to-port="1" />
		<edge from-layer="3069" from-port="2" to-layer="3071" to-port="0" />
		<edge from-layer="3070" from-port="0" to-layer="3071" to-port="1" />
		<edge from-layer="3071" from-port="2" to-layer="3072" to-port="0" />
		<edge from-layer="3072" from-port="1" to-layer="3073" to-port="1" />
		<edge from-layer="3073" from-port="2" to-layer="3075" to-port="0" />
		<edge from-layer="3074" from-port="0" to-layer="3075" to-port="1" />
		<edge from-layer="3075" from-port="2" to-layer="3077" to-port="0" />
		<edge from-layer="3076" from-port="0" to-layer="3077" to-port="1" />
		<edge from-layer="3077" from-port="2" to-layer="3079" to-port="0" />
		<edge from-layer="3078" from-port="0" to-layer="3079" to-port="1" />
		<edge from-layer="3079" from-port="2" to-layer="3082" to-port="2" />
		<edge from-layer="3080" from-port="0" to-layer="3082" to-port="3" />
		<edge from-layer="3081" from-port="0" to-layer="3082" to-port="4" />
		<edge from-layer="3082" from-port="5" to-layer="3084" to-port="0" />
		<edge from-layer="3083" from-port="0" to-layer="3084" to-port="1" />
		<edge from-layer="3084" from-port="2" to-layer="3086" to-port="0" />
		<edge from-layer="3085" from-port="0" to-layer="3086" to-port="1" />
		<edge from-layer="3086" from-port="2" to-layer="3095" to-port="0" />
		<edge from-layer="3087" from-port="0" to-layer="3088" to-port="0" />
		<edge from-layer="3088" from-port="1" to-layer="3091" to-port="0" />
		<edge from-layer="3089" from-port="0" to-layer="3090" to-port="0" />
		<edge from-layer="3090" from-port="1" to-layer="3091" to-port="1" />
		<edge from-layer="3091" from-port="2" to-layer="3093" to-port="0" />
		<edge from-layer="3092" from-port="0" to-layer="3093" to-port="1" />
		<edge from-layer="3093" from-port="2" to-layer="3094" to-port="0" />
		<edge from-layer="3094" from-port="1" to-layer="3095" to-port="1" />
		<edge from-layer="3095" from-port="2" to-layer="3097" to-port="0" />
		<edge from-layer="3096" from-port="0" to-layer="3097" to-port="1" />
		<edge from-layer="3097" from-port="2" to-layer="3098" to-port="1" />
		<edge from-layer="3098" from-port="2" to-layer="3100" to-port="0" />
		<edge from-layer="3098" from-port="2" to-layer="3128" to-port="0" />
		<edge from-layer="3099" from-port="0" to-layer="3100" to-port="1" />
		<edge from-layer="3100" from-port="2" to-layer="3102" to-port="0" />
		<edge from-layer="3101" from-port="0" to-layer="3102" to-port="1" />
		<edge from-layer="3102" from-port="2" to-layer="3104" to-port="0" />
		<edge from-layer="3103" from-port="0" to-layer="3104" to-port="1" />
		<edge from-layer="3104" from-port="2" to-layer="3113" to-port="0" />
		<edge from-layer="3105" from-port="0" to-layer="3106" to-port="0" />
		<edge from-layer="3106" from-port="1" to-layer="3109" to-port="0" />
		<edge from-layer="3107" from-port="0" to-layer="3108" to-port="0" />
		<edge from-layer="3108" from-port="1" to-layer="3109" to-port="1" />
		<edge from-layer="3109" from-port="2" to-layer="3111" to-port="0" />
		<edge from-layer="3110" from-port="0" to-layer="3111" to-port="1" />
		<edge from-layer="3111" from-port="2" to-layer="3112" to-port="0" />
		<edge from-layer="3112" from-port="1" to-layer="3113" to-port="1" />
		<edge from-layer="3113" from-port="2" to-layer="3115" to-port="0" />
		<edge from-layer="3114" from-port="0" to-layer="3115" to-port="1" />
		<edge from-layer="3115" from-port="2" to-layer="3116" to-port="0" />
		<edge from-layer="3116" from-port="1" to-layer="3125" to-port="0" />
		<edge from-layer="3117" from-port="0" to-layer="3118" to-port="0" />
		<edge from-layer="3118" from-port="1" to-layer="3121" to-port="0" />
		<edge from-layer="3119" from-port="0" to-layer="3120" to-port="0" />
		<edge from-layer="3120" from-port="1" to-layer="3121" to-port="1" />
		<edge from-layer="3121" from-port="2" to-layer="3123" to-port="0" />
		<edge from-layer="3122" from-port="0" to-layer="3123" to-port="1" />
		<edge from-layer="3123" from-port="2" to-layer="3124" to-port="0" />
		<edge from-layer="3124" from-port="1" to-layer="3125" to-port="1" />
		<edge from-layer="3125" from-port="2" to-layer="3127" to-port="0" />
		<edge from-layer="3126" from-port="0" to-layer="3127" to-port="1" />
		<edge from-layer="3127" from-port="2" to-layer="3128" to-port="1" />
		<edge from-layer="3128" from-port="2" to-layer="3130" to-port="0" />
		<edge from-layer="3128" from-port="2" to-layer="3198" to-port="0" />
		<edge from-layer="3129" from-port="0" to-layer="3130" to-port="1" />
		<edge from-layer="3130" from-port="2" to-layer="3132" to-port="0" />
		<edge from-layer="3131" from-port="0" to-layer="3132" to-port="1" />
		<edge from-layer="3132" from-port="2" to-layer="3134" to-port="0" />
		<edge from-layer="3133" from-port="0" to-layer="3134" to-port="1" />
		<edge from-layer="3134" from-port="2" to-layer="3143" to-port="0" />
		<edge from-layer="3134" from-port="2" to-layer="3160" to-port="0" />
		<edge from-layer="3134" from-port="2" to-layer="3173" to-port="0" />
		<edge from-layer="3135" from-port="0" to-layer="3136" to-port="0" />
		<edge from-layer="3136" from-port="1" to-layer="3139" to-port="0" />
		<edge from-layer="3137" from-port="0" to-layer="3138" to-port="0" />
		<edge from-layer="3138" from-port="1" to-layer="3139" to-port="1" />
		<edge from-layer="3139" from-port="2" to-layer="3141" to-port="0" />
		<edge from-layer="3140" from-port="0" to-layer="3141" to-port="1" />
		<edge from-layer="3141" from-port="2" to-layer="3142" to-port="0" />
		<edge from-layer="3142" from-port="1" to-layer="3143" to-port="1" />
		<edge from-layer="3143" from-port="2" to-layer="3145" to-port="0" />
		<edge from-layer="3144" from-port="0" to-layer="3145" to-port="1" />
		<edge from-layer="3145" from-port="2" to-layer="3147" to-port="0" />
		<edge from-layer="3146" from-port="0" to-layer="3147" to-port="1" />
		<edge from-layer="3147" from-port="2" to-layer="3149" to-port="0" />
		<edge from-layer="3148" from-port="0" to-layer="3149" to-port="1" />
		<edge from-layer="3149" from-port="2" to-layer="3151" to-port="0" />
		<edge from-layer="3150" from-port="0" to-layer="3151" to-port="1" />
		<edge from-layer="3151" from-port="2" to-layer="3182" to-port="0" />
		<edge from-layer="3152" from-port="0" to-layer="3153" to-port="0" />
		<edge from-layer="3153" from-port="1" to-layer="3156" to-port="0" />
		<edge from-layer="3154" from-port="0" to-layer="3155" to-port="0" />
		<edge from-layer="3155" from-port="1" to-layer="3156" to-port="1" />
		<edge from-layer="3156" from-port="2" to-layer="3158" to-port="0" />
		<edge from-layer="3157" from-port="0" to-layer="3158" to-port="1" />
		<edge from-layer="3158" from-port="2" to-layer="3159" to-port="0" />
		<edge from-layer="3159" from-port="1" to-layer="3160" to-port="1" />
		<edge from-layer="3160" from-port="2" to-layer="3162" to-port="0" />
		<edge from-layer="3161" from-port="0" to-layer="3162" to-port="1" />
		<edge from-layer="3162" from-port="2" to-layer="3164" to-port="0" />
		<edge from-layer="3163" from-port="0" to-layer="3164" to-port="1" />
		<edge from-layer="3164" from-port="2" to-layer="3182" to-port="1" />
		<edge from-layer="3165" from-port="0" to-layer="3166" to-port="0" />
		<edge from-layer="3166" from-port="1" to-layer="3169" to-port="0" />
		<edge from-layer="3167" from-port="0" to-layer="3168" to-port="0" />
		<edge from-layer="3168" from-port="1" to-layer="3169" to-port="1" />
		<edge from-layer="3169" from-port="2" to-layer="3171" to-port="0" />
		<edge from-layer="3170" from-port="0" to-layer="3171" to-port="1" />
		<edge from-layer="3171" from-port="2" to-layer="3172" to-port="0" />
		<edge from-layer="3172" from-port="1" to-layer="3173" to-port="1" />
		<edge from-layer="3173" from-port="2" to-layer="3175" to-port="0" />
		<edge from-layer="3174" from-port="0" to-layer="3175" to-port="1" />
		<edge from-layer="3175" from-port="2" to-layer="3177" to-port="0" />
		<edge from-layer="3176" from-port="0" to-layer="3177" to-port="1" />
		<edge from-layer="3177" from-port="2" to-layer="3179" to-port="0" />
		<edge from-layer="3178" from-port="0" to-layer="3179" to-port="1" />
		<edge from-layer="3179" from-port="2" to-layer="3182" to-port="2" />
		<edge from-layer="3180" from-port="0" to-layer="3182" to-port="3" />
		<edge from-layer="3181" from-port="0" to-layer="3182" to-port="4" />
		<edge from-layer="3182" from-port="5" to-layer="3184" to-port="0" />
		<edge from-layer="3183" from-port="0" to-layer="3184" to-port="1" />
		<edge from-layer="3184" from-port="2" to-layer="3186" to-port="0" />
		<edge from-layer="3185" from-port="0" to-layer="3186" to-port="1" />
		<edge from-layer="3186" from-port="2" to-layer="3195" to-port="0" />
		<edge from-layer="3187" from-port="0" to-layer="3188" to-port="0" />
		<edge from-layer="3188" from-port="1" to-layer="3191" to-port="0" />
		<edge from-layer="3189" from-port="0" to-layer="3190" to-port="0" />
		<edge from-layer="3190" from-port="1" to-layer="3191" to-port="1" />
		<edge from-layer="3191" from-port="2" to-layer="3193" to-port="0" />
		<edge from-layer="3192" from-port="0" to-layer="3193" to-port="1" />
		<edge from-layer="3193" from-port="2" to-layer="3194" to-port="0" />
		<edge from-layer="3194" from-port="1" to-layer="3195" to-port="1" />
		<edge from-layer="3195" from-port="2" to-layer="3197" to-port="0" />
		<edge from-layer="3196" from-port="0" to-layer="3197" to-port="1" />
		<edge from-layer="3197" from-port="2" to-layer="3198" to-port="1" />
		<edge from-layer="3198" from-port="2" to-layer="3200" to-port="0" />
		<edge from-layer="3198" from-port="2" to-layer="3228" to-port="0" />
		<edge from-layer="3199" from-port="0" to-layer="3200" to-port="1" />
		<edge from-layer="3200" from-port="2" to-layer="3202" to-port="0" />
		<edge from-layer="3201" from-port="0" to-layer="3202" to-port="1" />
		<edge from-layer="3202" from-port="2" to-layer="3204" to-port="0" />
		<edge from-layer="3203" from-port="0" to-layer="3204" to-port="1" />
		<edge from-layer="3204" from-port="2" to-layer="3213" to-port="0" />
		<edge from-layer="3205" from-port="0" to-layer="3206" to-port="0" />
		<edge from-layer="3206" from-port="1" to-layer="3209" to-port="0" />
		<edge from-layer="3207" from-port="0" to-layer="3208" to-port="0" />
		<edge from-layer="3208" from-port="1" to-layer="3209" to-port="1" />
		<edge from-layer="3209" from-port="2" to-layer="3211" to-port="0" />
		<edge from-layer="3210" from-port="0" to-layer="3211" to-port="1" />
		<edge from-layer="3211" from-port="2" to-layer="3212" to-port="0" />
		<edge from-layer="3212" from-port="1" to-layer="3213" to-port="1" />
		<edge from-layer="3213" from-port="2" to-layer="3215" to-port="0" />
		<edge from-layer="3214" from-port="0" to-layer="3215" to-port="1" />
		<edge from-layer="3215" from-port="2" to-layer="3216" to-port="0" />
		<edge from-layer="3216" from-port="1" to-layer="3225" to-port="0" />
		<edge from-layer="3217" from-port="0" to-layer="3218" to-port="0" />
		<edge from-layer="3218" from-port="1" to-layer="3221" to-port="0" />
		<edge from-layer="3219" from-port="0" to-layer="3220" to-port="0" />
		<edge from-layer="3220" from-port="1" to-layer="3221" to-port="1" />
		<edge from-layer="3221" from-port="2" to-layer="3223" to-port="0" />
		<edge from-layer="3222" from-port="0" to-layer="3223" to-port="1" />
		<edge from-layer="3223" from-port="2" to-layer="3224" to-port="0" />
		<edge from-layer="3224" from-port="1" to-layer="3225" to-port="1" />
		<edge from-layer="3225" from-port="2" to-layer="3227" to-port="0" />
		<edge from-layer="3226" from-port="0" to-layer="3227" to-port="1" />
		<edge from-layer="3227" from-port="2" to-layer="3228" to-port="1" />
		<edge from-layer="3228" from-port="2" to-layer="3230" to-port="0" />
		<edge from-layer="3229" from-port="0" to-layer="3230" to-port="1" />
		<edge from-layer="3230" from-port="2" to-layer="3232" to-port="0" />
		<edge from-layer="3231" from-port="0" to-layer="3232" to-port="1" />
		<edge from-layer="3232" from-port="2" to-layer="3234" to-port="0" />
		<edge from-layer="3233" from-port="0" to-layer="3234" to-port="1" />
		<edge from-layer="3234" from-port="2" to-layer="3235" to-port="0" />
	</edges>
	<rt_info>
		<Runtime_version value="2025.4.1-20426-82bbf0292c5-releases/2025/4" />
		<conversion_parameters>
			<framework value="pytorch" />
			<is_python_object value="True" />
		</conversion_parameters>
		<nncf>
			<friendly_names_were_updated value="True" />
			<version value="2.19.0" />
			<weight_compression>
				<advanced_parameters value="{'statistics_path': None, 'lora_adapter_rank': 256, 'group_size_fallback_mode': 'error', 'min_adjusted_group_size': 32, 'awq_params': {'subset_size': 32, 'percent_to_apply': 0.002, 'alpha_min': 0.0, 'alpha_max': 1.0, 'steps': 100, 'prefer_data_aware_scaling': True}, 'scale_estimation_params': {'subset_size': 64, 'initial_steps': 5, 'scale_steps': 5, 'weight_penalty': -1.0}, 'gptq_params': {'damp_percent': 0.1, 'block_size': 128, 'subset_size': 128}, 'lora_correction_params': {'adapter_rank': 8, 'num_iterations': 3, 'apply_regularization': True, 'subset_size': 128, 'use_int8_adapters': True}, 'backend_params': {}, 'codebook': None}" />
				<all_layers value="False" />
				<awq value="False" />
				<backup_mode value="int8_asym" />
				<compression_format value="dequantize" />
				<gptq value="False" />
				<group_size value="-1" />
				<ignored_scope value="[]" />
				<lora_correction value="False" />
				<mode value="int8_asym" />
				<ratio value="1.0" />
				<scale_estimation value="False" />
				<sensitivity_metric value="weight_quantization_error" />
			</weight_compression>
		</nncf>
		<optimum>
			<nncf_version value="2.19.0" />
			<optimum_intel_version value="1.26.1" />
			<optimum_version value="2.1.0" />
			<pytorch_version value="2.9.1" />
			<transformers_version value="4.55.4" />
		</optimum>
	</rt_info>
</net>
